MTCNN02/pnet.pt (torch_old, 27933 bytes, 8 tensors)

0.weight f4 [10, 3, 3, 3]
000000 75 c2 a8 3c 61 03 0f 3e 22 a7 8f bc 52 44 47 be
       0.020600537 0.13966133 -0.01753575 -0.19459656
000010 b6 47 66 be 48 04 8b 3e 83 9c 92 bd 20 30 86 be
       -0.22488293 0.27151704 -0.071587585 -0.2620859
000020 0f f7 a8 bd d0 c3 ff bd ce 8e 1a bd 25 45 c7 3d
       -0.08250248 -0.1248852 -0.037733845 0.09729985
000030 ef 53 6c 3e b5 a6 db bd 0e aa 5f 3e b4 43 a7 3b
       0.23078893 -0.10725156 0.21842214 0.0051045064
000040 09 5f 3e 3c c4 67 9a 3d 43 8b 68 3d 0d 2d fc 3a
       0.011619338 0.07539323 0.056773435 0.00192395
000050 f1 64 21 be 87 d1 1a bd de 69 0e be 15 35 73 3e
       -0.15761162 -0.037797477 -0.13907573 0.23750718
000060 bd 51 b9 3d f9 a7 a2 3b 77 7e 9e be 38 f3 30 3d
       0.090487935 0.0049638716 -0.3095586 0.0432007
000070 3b 3d 5e bc 29 b8 57 3d 6b e1 b2 3b 85 94 e6 bd
       -0.013564403 0.052665863 0.005459001 -0.112587966
000080 c7 82 3e be ed b0 e0 3d 91 d6 a0 3d 8f 86 cb 3d
       -0.18604575 0.10971246 0.07853425 0.099377744
000090 cc 45 2c bd 86 58 1e be ff 86 3f bd 0e fb 40 be
       -0.04205875 -0.15463457 -0.0467596 -0.1884577
0000a0 fe ac a8 3b 2b 3d 39 be 20 66 23 3e 01 41 8d 3e
       0.0051475754 -0.1808974 0.15956926 0.27588657
0000b0 c4 7f 8c 3e fd 76 48 bd cc 90 25 3d 1b be 97 bd
       0.27441227 -0.0489416 0.040421292 -0.074093066
0000c0 84 d9 c3 bd cd 5d 45 be a1 b6 b3 bd 58 ec 64 3e
       -0.09562972 -0.19274063 -0.08775068 0.22355783
0000d0 40 45 0e 3c 01 d2 62 3e eb 9b 19 3e 8d 57 4b bc
       0.008683503 0.22150423 0.15000884 -0.01241101
0000e0 ac af 0b 3e 22 9e 0b be 29 6e 3e bd 5c da fd bd
       0.13641232 -0.13634542 -0.046491776 -0.12395164
0000f0 4e eb 17 3e d8 1c bf bd c3 03 c6 3d 39 af 74 bc
       0.14835855 -0.093316734 0.09668686 -0.014934354
000100 f9 b5 03 3e 88 3e cd bd 18 6f 8e be 4c bb 35 bd
       0.12862386 -0.100216925 -0.27819133 -0.044368073
000110 ad 9f 31 be 0e 88 c3 bc 35 25 5b 3e 05 5c be 3d
       -0.17346068 -0.023868587 0.21400912 0.09294895
000120 82 94 e9 3d e8 33 5f 3d e6 10 84 3e d7 76 3f be
       0.11405279 0.05449286 0.25794142 -0.18697678
000130 d1 46 87 be 11 21 ff bd 03 cc 86 3e e5 c3 0c 3d
       -0.26421216 -0.12457479 0.26327524 0.034366507
000140 f0 88 24 bd a0 d7 df 3d 9b 8e 60 be 12 7b 24 be
       -0.040169656 0.10929799 -0.219294 -0.16062573
000150 95 f2 6b 3d 8a 48 2c be fc df 13 bd 1b fb 83 be
       0.05760439 -0.16824546 -0.03610228 -0.25777516
000160 29 eb 70 be 06 79 be bd 5d 2b a4 3d 93 1e 85 3e
       -0.23527206 -0.09300427 0.080160834 0.2599989
000170 ff 1a 23 bc 3f fe 6a 3e 61 bd c6 bd 44 29 ab bd
       -0.009955167 0.2294855 -0.0970409 -0.0835748
000180 e8 48 7b 3e e6 54 20 bd a6 e3 31 3e 4c 94 ad bd
       0.2453953 -0.039143465 0.17371997 -0.08475551
000190 aa 48 68 3c 62 42 e7 3d 00 0c 5a 3e a9 9a 99 bd
       0.014177481 0.112919584 0.2129364 -0.07500202
0001a0 95 57 ed 3d e8 b6 74 bd d7 58 02 3d a7 6f 16 3e
       0.115889706 -0.059744745 0.031823006 0.1469103
0001b0 fc 5b 5a bd f2 96 55 bd 60 bf 47 3e 47 6c 9a 3c
       -0.05331038 -0.052145906 0.19506598 0.018850459
0001c0 ec cd 3a bc 84 be 11 3e 03 f8 9c 3c 8d 8a 15 be
       -0.011401635 0.14232832 0.01916123 -0.14603634
0001d0 58 40 53 3e 6d c8 09 be a3 32 eb 3d a3 c6 07 bd
       0.20630014 -0.13455363 0.114842676 -0.03314842
0001e0 9d 0f 48 bd 20 27 52 be d8 05 58 3e ea 2f d4 3c
       -0.048843015 -0.20522738 0.21095979 0.025901753
0001f0 c3 f0 54 be 13 53 a0 bd 20 c0 9d bd 7c d5 84 3d
       -0.20794968 -0.07828345 -0.077026606 0.064860314
000200 6b c4 07 3e 03 f1 3b 3e a9 be 1a be 83 97 33 3e
       0.13258521 0.18353657 -0.15111794 0.17538266
000210 31 f9 2c 3d 81 20 f6 bd d3 15 89 bc 1c 84 fb ba
       0.042229835 -0.120179184 -0.01673404 -0.0019189152
000220 3b 64 56 bd ef 31 ab 3b 30 64 5b 3e 69 1f 26 bc
       -0.05234168 0.0052244584 0.21424937 -0.010139325
000230 87 31 c9 bd 24 4c 1f 3e 0d 2b 31 be ef 56 33 bd
       -0.098239 0.15556389 -0.17301579 -0.04378408
000240 fb 2a f6 bc ac de 08 3c 3c 5b 0b 3e 56 94 4b 3e
       -0.030049792 0.00835387 0.13609022 0.19880804
000250 c1 29 9f 3d aa 9d a1 be 41 08 31 3e 0f 8d 84 3c
       0.07771636 -0.315656 0.17288305 0.016180543
000260 64 53 e8 3c 3e 75 27 bd 84 7b 33 3e 62 e9 a4 bd
       0.028360076 -0.040883295 0.17527586 -0.08052327
000270 a4 92 43 3e 54 7a b2 bd 43 cf 92 be e3 99 4d 3e
       0.19098908 -0.087147385 -0.28673753 0.20078234
000280 3c f3 a7 3d 67 7b 28 be 06 d6 4d 3e 07 f5 fa 3d
       0.0820069 -0.16453324 0.20101175 0.122537665
000290 a8 c1 06 3e a7 d0 d7 bb 74 ee f2 3d 1e dc 61 3d
       0.13159811 -0.0065861526 0.118618876 0.05514156
0002a0 3d 90 2b 3e 22 1f 80 bd c6 f7 30 3d 07 88 07 bd
       0.16754241 -0.06255938 0.043205045 -0.03308871
0002b0 47 66 55 3b 1b 74 f9 3c 57 d4 d7 bc f2 de 87 3d
       0.0032562183 0.030450871 -0.026346369 0.0663432
0002c0 d8 cb 1c bd 2f 6c 10 3e 9a 48 92 3d 80 b8 68 3e
       -0.038280338 0.14103769 0.07142754 0.22726631
0002d0 ae 09 09 3e 26 40 c2 bd 20 84 cd 3b 6e fd 9b bd
       0.13382599 -0.094848916 0.006271854 -0.07616697
0002e0 d7 2a 41 be f3 cc 7d bd 96 e9 d8 3d bb 1c 18 3e
       -0.18863998 -0.061963033 0.10591428 0.1485471
0002f0 e0 3c e8 ba f2 7f 9f 3b 81 b1 86 be 69 68 89 bd
       -0.0017718337 0.004867547 -0.263073 -0.06709368
000300 d8 f7 ed bd 04 00 04 be 57 2a da 3d ab f7 23 3d
       -0.11619538 -0.12890631 0.10652607 0.040031116
000310 3d 1d 52 bb f4 10 f5 3d 36 ce 67 be eb c3 2d be
       -0.0032060884 0.11966124 -0.22637257 -0.16969268
000320 a7 f0 ef bd 4c c4 10 be 16 91 1d 3e 40 b8 54 3e
       -0.11715823 -0.14137381 0.15387377 0.20773411
000330 24 bf 1a 3e b7 77 82 3e 9f 37 55 bd bb 96 ec bd
       0.15111977 0.2548196 -0.052054998 -0.11552187
000340 a7 68 4c be 7c da e9 bd 2d 9b 32 bb 4f 4b a7 3d
       -0.19961797 -0.11418626 -0.0027253137 0.08168661
000350 a5 87 1f 3e 32 0b be bd 1e e9 0a 3e e9 0f 53 3e
       0.15579088 -0.09279479 0.1356549 0.20611538
000360 4f f3 4e bd bc 97 ab bd 33 dc 8a be 0f 65 9b bd
       -0.050525006 -0.083785504 -0.27121124 -0.07587635
000370 da 5d 44 3d cb 85 d0 3d f8 d4 cb bd 78 c4 45 bd
       0.047941066 0.10181769 -0.0995273 -0.04828307
000380 b8 be 3a 3c a3 f4 75 3e 5d d3 5e 3e 39 40 e4 3e
       0.01139801 0.24019103 0.21760316 0.44580248
000390 e7 1b 87 3e 2d f6 9c 3e 9b 86 8f 3e ae 3a 75 3e
       0.26388475 0.30656567 0.28032383 0.23948166
0003a0 9c b1 97 3e 4f 68 9c 3e e0 85 5d 3e 3a 04 39 bd
       0.29627693 0.3054833 0.216331 -0.045170046
0003b0 8a 2d fe 3d b6 cc 8c 3d fe 55 ca bd 6c e3 cd 3c
       0.1241103 0.06874983 -0.09879683 0.025132857
0003c0 10 15 f9 bd e9 5d 71 be 59 4e 02 3e 8b d1 c7 bd
       -0.121622205 -0.2357098 0.127252 -0.09756764
0003d0 45 6f 2f be 0a 22 08 be 58 8e 5b bd 6e e5 58 bd
       -0.1713229 -0.13294235 -0.053602546 -0.052953176
0003e0 e2 b3 ad be 74 42 04 bd e7 23 ba 3d 44 1f ac bc
       -0.33926302 -0.032289937 0.09088879 -0.021011002
0003f0 97 a2 c6 bd 80 a2 d5 3d 5b 92 02 be 00 ec da bd
       -0.0969898 0.10431385 -0.12751143 -0.10689545

0.bias f4 [10]
000000 2c c0 19 3e 22 bc 1c 3d 31 0e 3d bd a8 93 b4 ba
       0.15014714 0.038265355 -0.046156112 -0.0013776915
000010 54 bf 55 3d e3 28 36 bd f4 6a a2 bc bd d8 2a be
       0.052184418 -0.044472586 -0.01982639 -0.16684242
000020 d2 60 c3 bd 01 0f f2 bd
       -0.095399514 -0.11819268

3.weight f4 [16, 10, 3, 3]
000000 74 42 09 3e 73 da 1c be ae 27 ac 3d 08 31 3b bd
       0.13404256 -0.15317707 0.08406006 -0.045701057
000010 87 10 37 be 78 c2 11 be 89 b6 8a 3e e0 ca ff 3d
       -0.17877398 -0.1423434 0.27092388 0.12489867
000020 39 41 9c bc d6 57 6e 3d e8 5b d8 bc 90 ef fe 3d
       -0.01907407 0.058189236 -0.026411012 0.12448037
000030 04 82 8a 3c 1f 98 65 3d 4a 16 ea 3d 87 8e 0c be
       0.0169077 0.056053277 0.114300326 -0.13726245
000040 36 11 b2 3c c2 38 05 bc 0c 86 02 3d e4 79 a0 3d
       0.021736722 -0.008131208 0.03186612 0.07835749
000050 51 4c fd 3c 73 52 81 bc 4c c6 28 3d 10 5b 7c 3b
       0.03092018 -0.015786385 0.041204736 0.0038506426
000060 4b c4 f1 b9 35 d7 38 3d 49 8e de 3d 51 78 ab be
       -0.00046113352 0.045127112 0.108669825 -0.33490232
000070 bf f2 9d be c3 5c 67 bd b1 e6 ed be 30 bf 79 be
       -0.30849263 -0.05648495 -0.46465066 -0.24389338
000080 73 cc bc 3d f9 27 89 be ec 51 b8 be 2e 45 0f be
       0.09218683 -0.2678831 -0.36 -0.13991234
000090 76 c9 2f 3e 84 47 21 3e b4 fb 08 3e ec 37 08 3d
       0.17166695 0.15749937 0.13377267 0.033256456
0000a0 7d bf c5 3d 24 ff 49 bd 45 4b 68 bc 29 5d 05 3e
       0.09655664 -0.049315587 -0.014178102 0.13023819
0000b0 a3 f4 02 3d c6 86 94 3d 16 07 31 3e 6c b3 44 3e
       0.031971585 0.072522685 0.1728786 0.19209069
0000c0 c1 38 24 3e 48 47 3f 3d b5 e5 a9 3c db d5 17 3e
       0.16037275 0.04669884 0.020739416 0.14827673
0000d0 d8 98 24 3e 84 d4 f9 3d ed 97 46 bb 07 76 af 3d
       0.1607393 0.12198737 -0.0030302957 0.08567434
0000e0 fc 33 3e 3d 04 57 c5 bd ff e2 a4 bc cd a5 be bd
       0.046436295 -0.096357375 -0.020127771 -0.09308968
0000f0 12 ae 70 3c 96 83 c4 bd 29 b0 2a 3c 1e 40 a8 3d
       0.014689939 -0.095954105 0.010417976 0.082153544
000100 95 ea d9 bc 39 65 a7 bd 08 da dd 3d 7f 83 55 bc
       -0.026601115 -0.081736036 0.10832602 -0.013031839
000110 a2 45 a6 3d 46 2e 11 be a9 4b ed bd 45 e7 be bc
       0.0811875 -0.14177808 -0.11586697 -0.023303637
000120 28 0a 11 3e 24 97 01 3c 80 f7 0a 3d 1e 5b 43 bd
       0.1416403 0.00790957 0.03392744 -0.047694318
000130 78 24 05 3d 50 31 94 bd 6f 4d 92 3d ac fc 2a 3d
       0.032505482 -0.07235968 0.071436755 0.041744873
000140 8e ed 57 bd f5 25 a5 bc 83 c0 fc bd 9c 9b 00 3e
       -0.052716784 -0.0201597 -0.12341406 0.1255936
000150 69 66 4d bd 3c b4 1f 3d 96 29 32 3e 16 3f bb bd
       -0.050146494 0.038990244 0.17398676 -0.09142892
000160 02 c9 b0 bd 2b 08 b3 bd c2 2a 71 be 8c cc 8a 3d
       -0.08632089 -0.08741792 -0.23551467 0.067772955
000170 a0 8c 14 3e 3c 19 b2 bd 03 c3 0f 3f 6d 30 56 3e
       0.14506769 -0.08696219 0.5615694 0.2091691
000180 26 b6 0a bf d0 e9 36 3e cf 6e 2c be 29 81 1e ba
       -0.54184186 0.1786263 -0.16839145 -0.0006046468
000190 cb ef 8f be 77 5a 82 3d 26 29 c2 3e 57 19 01 be
       -0.28112635 0.06364911 0.3792202 -0.12607323
0001a0 2e 4a 71 3e 08 d5 96 3e a3 90 90 bc 06 59 08 3e
       0.23563454 0.29459405 -0.017647093 0.1331521
0001b0 2e b6 28 3f 42 0a 8d bd 7a 2e 93 3e 40 4a 1a 3f
       0.65902984 -0.06886722 0.28746396 0.60269547
0001c0 51 c7 8a 3d d5 0e 35 3e 79 87 5c 3e 19 43 a4 bc
       0.06776298 0.17681439 0.21536054 -0.020051526
0001d0 b5 5c 1d be 3b 25 95 bd 8f 00 ee be e7 2f 8d be
       -0.15367396 -0.07282492 -0.464848 -0.2757561
0001e0 66 6e 25 3e 1d ab ac 3e 77 09 3e bd 75 a7 7e be
       0.16155395 0.337243 -0.046395745 -0.24868567
0001f0 ac 18 e2 3e e3 2b 45 3e cd d6 5a 3e 2d b0 b9 3d
       0.44159448 0.19255023 0.21371002 0.09066806
000200 92 57 85 3b 1e 79 63 3d 1b 06 b1 3d 48 60 be 3d
       0.004069277 0.05553543 0.08643743 0.09295708
000210 2e 02 bb 3d f3 c9 c0 3b 8e 68 4a 3d 47 81 87 be
       0.09131275 0.005883449 0.049416117 -0.26465818
000220 00 39 b1 bc 46 57 85 bc db a6 a6 3d 3f 83 c5 3d
       -0.021633625 -0.016276967 0.08137294 0.09644174
000230 ea 15 be 3d 4b a3 1f be 15 de 27 3d 4c 77 35 3d
       0.092815235 -0.15589635 0.04098328 0.044303223
000240 e7 c7 38 3e da e0 5e 3d 24 51 21 bd 86 50 e7 bd
       0.18045007 0.054413654 -0.039384022 -0.112946555
000250 7a 51 93 3d 39 ee a0 3c eb 2e b9 bc cb bf 22 3d
       0.07193275 0.019644843 -0.02260538 0.03973369
000260 f3 b2 41 bd bb 24 47 be eb b5 41 be 31 3c b1 bc
       -0.0472898 -0.19447605 -0.18917052 -0.021635147
000270 9f 61 82 3e 83 56 71 be 6f ae 7a 3d 4b 82 b4 3e
       0.25465104 -0.23568158 0.06120151 0.35255656
000280 6f 82 dd 3c 48 68 30 3e 77 50 ae 3d a8 58 01 3a
       0.027039735 0.1722728 0.08511441 0.000493417
000290 1e a2 7c bc 19 00 0b 3d bb aa cc bd 0a c8 fc 3c
       -0.015419511 0.03393564 -0.09993502 0.030857105
0002a0 b2 09 01 be 05 0c b0 bc 77 68 10 bb bd 8e 15 bf
       -0.12601355 -0.021490106 -0.0022034922 -0.58420926
0002b0 91 a9 ce be 22 b0 53 3d 19 05 0f bb 8f 9c 9a bd
       -0.40363744 0.051681645 -0.0021823107 -0.075493924
0002c0 b8 30 1c bd 90 ae 0f 3d 44 3c ae bc 87 14 2b be
       -0.0381324 0.035078585 -0.021268971 -0.1670705
0002d0 5c 5b 91 3c 2e 94 af be 89 91 13 bf b4 bb 21 3d
       0.017743759 -0.3429274 -0.57643944 0.03948565
0002e0 f4 7b 4a bd ce 90 2a be 6d 1f 6a be 3b 7d 4b be
       -0.049434617 -0.16656801 -0.2286355 -0.1987199
0002f0 db 14 ad bd b9 0d a1 3d db d6 9d bd f4 a5 9f 3e
       -0.084512435 0.078639455 -0.07706996 0.311813
000300 8b eb 09 be 4a 28 27 be 71 5c d1 3e 67 21 5e bd
       -0.13468759 -0.16323963 0.4089084 -0.054231074
000310 22 72 81 bd 43 9a 84 3e 98 df 9f bd 31 63 98 bc
       -0.06320597 0.25898942 -0.07806319 -0.018601986
000320 a9 d9 1d 3e 7c 84 52 be 5a 91 33 be 6b 5b fd 3e
       0.15415062 -0.20558351 -0.17535916 0.4948381
000330 e4 01 41 bc 88 26 71 bd ec c8 bc 3e aa 96 81 3e
       -0.011780236 -0.058874637 0.3687204 0.2531026
000340 77 57 91 3e 01 56 8f be 07 fc 20 3f 1a be 0b 3f
       0.28387043 -0.27995303 0.62884563 0.54586947
000350 6a ba 8c be b5 63 ce 3e 2f 18 e4 3e be f1 84 bd
       -0.27485973 0.40310445 0.445497 -0.06491421
000360 e9 8e 64 3d ec e6 ac bd 53 ed 9c bd b6 67 b6 3c
       0.055800352 -0.08442482 -0.076624535 0.02226625
000370 68 82 15 be c6 44 84 bc f5 7f a2 3d 13 45 18 bd
       -0.14600527 -0.016146075 0.07934562 -0.03717525
000380 69 46 cd 3c 20 c6 0f be 07 e0 72 bd 1d 65 93 be
       0.025057988 -0.14040422 -0.05929568 -0.2878808
000390 3d 28 79 bd 45 3c c0 3d 0b b4 89 be e3 f0 75 be
       -0.06082939 0.093864955 -0.26895174 -0.24017672
0003a0 53 5b 36 3d 26 16 f2 bd f1 3e be 3c 69 50 73 bd
       0.044520687 -0.11820631 0.023223372 -0.059402857
0003b0 9c 55 96 bc fc a5 0d bc 12 52 d7 3c 82 21 3b 3d
       -0.018351369 -0.008645531 0.026284251 0.045686252
0003c0 8b c8 21 be a3 1b 9e bd c8 c4 bc 3c 77 46 99 bd
       -0.15799157 -0.07720115 0.023043051 -0.07484143
0003d0 eb c7 9e 3c 89 29 1c 3e 0d 83 11 bd d3 55 2e bd
       0.019382438 0.1525022 -0.03552537 -0.042562317
0003e0 e1 cb a8 3e eb f9 3f 3e bd 68 92 bd ad 72 ef 3d
       0.32968047 0.1874768 -0.071488835 0.116917945
0003f0 42 b7 5f bd ba b4 20 bd 6e ff bf bd 7a 64 72 bd
       -0.054618128 -0.039234854 -0.09374891 -0.059177853

3.bias f4 [16]
000000 17 b9 86 bc 77 a5 11 3e a5 e9 c7 bc e7 1d 84 3d
       -0.01644568 0.14223276 -0.024403403 0.06451016
000010 f9 99 ca bc 3f 60 3f be e4 2f 06 be d3 40 84 bc
       -0.024731623 -0.18689059 -0.13104206 -0.016144192
000020 ed c6 05 3d e7 0d fd 3b 7e 6c c9 bd 67 bc 85 3d
       0.032660414 0.0077226046 -0.09835146 0.065300755
000030 97 18 d5 3c 57 60 e0 bc 15 d1 6d 3d cd 0a 3e 3d
       0.026012702 -0.027389688 0.058060724 0.04639702

5.weight f4 [32, 16, 3, 3]
000000 e9 06 07 be 47 1e 9a bd 5c d4 52 3d 7a a3 77 3d
       -0.1318623 -0.07525306 0.051472053 0.060458638
000010 a6 50 b0 3c 81 4d ab 3d 2a a0 c3 3d 04 48 a5 3d
       0.021522831 0.08364392 0.09552033 0.080703765
000020 b4 74 b5 3d aa 3f 3b be 67 7e d1 3b 60 c2 88 3d
       0.0886015 -0.18286005 0.006393242 0.06677699
000030 c8 08 1e bc b5 d0 52 3d b9 ce 81 3d 5c 78 0b be
       -0.009645648 0.05146857 0.06338257 -0.13620132
000040 0e 31 8b 3d 19 96 05 bd 63 f0 10 be 7f 5c 23 bd
       0.06796466 -0.032613847 -0.141542 -0.039883133
000050 db f0 06 be 56 8e c8 3b e6 86 74 bd 15 94 b1 bd
       -0.13177817 0.0061204834 -0.05969896 -0.086708225
000060 b9 c7 0c 3d af a9 0f bd bd 88 4e bd 1b 50 d3 bd
       0.034370158 -0.035073932 -0.050423373 -0.10318013
000070 9d 0c ac bc c4 ef d7 3d 96 85 07 be de ae 1a be
       -0.021002108 0.105437785 -0.13234553 -0.15105769
000080 9f 0c 43 bc ca 38 cf be fc 06 24 be ba 79 4e be
       -0.011904865 -0.40473014 -0.1601829 -0.20163622
000090 fa a8 58 3d 8f 62 06 3d af 7e 0c 3e 47 fd 7f bc
       0.052895524 0.032808837 0.13720201 -0.015624351
0000a0 81 49 7d 3d e3 4c 79 3d 0d c0 56 3b c1 96 1b 3d
       0.061837677 0.06086434 0.003276828 0.037985567
0000b0 92 95 b0 3d 56 a5 9f 3b c2 c2 1e 3e b8 39 1f 3e
       0.08622278 0.0048720045 0.15503982 0.15549362
0000c0 71 fe 4e 3d 4b 2f f2 3d 66 d5 dd 3d 6f e5 5c 3d
       0.050535623 0.11825427 0.10831718 0.053929742
0000d0 e3 77 06 3e 8f 61 a5 bd 90 cb ed 38 13 46 e5 bd
       0.1313167 -0.080752485 0.00011338957 -0.11195006
0000e0 29 65 3b be b3 6f a5 3c 00 c7 8f bd 32 72 1a 3d
       -0.18300308 0.020194864 -0.07020378 0.03770656
0000f0 f8 74 4a 3e 01 57 3b 3e 30 e8 67 3e 63 f7 ba bd
       0.19771183 0.18294908 0.22647166 -0.091292165
000100 9d 22 20 be 83 d8 ee be ee 0c ab be 16 14 71 bc
       -0.15638204 -0.4664956 -0.33408302 -0.0147142615
000110 35 5f 35 be fc de 82 be 7c 4e 19 be e0 7f ac bd
       -0.177121 -0.2556075 -0.14971346 -0.08422828
000120 3f de ac bc 5a 80 ed bd aa c1 a9 bd ae f1 5f 3e
       -0.021102069 -0.11596747 -0.082888916 0.21869537
000130 e3 e3 aa bd cd c1 3f 3c 55 32 0b 3b f3 37 89 be
       -0.08344247 0.011703921 0.0021239717 -0.26800498
000140 36 60 cd be 7b a3 30 3e aa c9 ea 3d 35 e8 5c 3c
       -0.40112466 0.17249863 0.114642456 0.013483097
000150 6b e1 0c 3c 8c 72 f4 bd 0b f7 6b be 81 df 9f bd
       0.008598666 -0.119359106 -0.23043458 -0.07806302
000160 c0 e8 83 be 26 8a ba bd 65 fb 10 bd c3 35 17 be
       -0.25763512 -0.09108381 -0.035396 -0.14766602
000170 d8 51 4b be 2f d3 e4 3d 74 dd 94 3b 86 7f 20 be
       -0.1985544 0.111730926 0.004543001 -0.15673646
000180 c1 c2 bf bd f4 2a ce bc fb fb 74 bb cd 99 b3 3b
       -0.09363318 -0.025166966 -0.0037381637 0.005480981
000190 65 17 3e be 28 50 13 be 5d 62 82 bd 99 e6 0a be
       -0.18563612 -0.14386046 -0.063664176 -0.13564529
0001a0 5c 12 48 3c 13 99 94 bd a6 ce 16 be 2e 26 23 be
       0.0122114085 -0.07255759 -0.14727268 -0.15932533
0001b0 d0 52 44 3c dd 0b ab 3c b6 6c c8 be 9f 22 b7 3c
       0.011982635 0.02087968 -0.3914544 0.022355376
0001c0 ee cf b6 bd 46 ef b1 be 9a e1 11 bc 2a ae c5 bd
       -0.08926378 -0.34752864 -0.008903885 -0.0965236
0001d0 b9 56 35 be 8a f8 a5 3d c3 ea 2e be d4 34 9c bd
       -0.17708863 0.08104046 -0.17081742 -0.07627264
0001e0 cd f2 f5 3d 76 3c bf 3d 97 e2 d4 bc a7 be 2d 3e
       0.12009201 0.09337704 -0.025986953 0.1696726
0001f0 5c 70 53 3e 2e 68 24 3d 69 30 b6 3d a9 6f f9 bc
       0.2064833 0.040138416 0.08895952 -0.030448752
000200 d7 29 ba be 14 37 bb bd b5 58 a5 bd 95 66 75 be
       -0.36360046 -0.09141365 -0.0807356 -0.23964913
000210 d0 86 36 be c1 69 ca bd 8a 06 88 be c9 42 57 be
       -0.17824864 -0.09883452 -0.2656749 -0.2102157
000220 9e 44 42 be 01 27 25 be 3f f7 42 be 8e 37 6e be
       -0.18971488 -0.1612816 -0.1903963 -0.2326338
000230 f0 61 15 be 89 12 82 be 58 8a 8a be c4 5a 38 be
       -0.14588141 -0.25404766 -0.27058673 -0.18003374
000240 53 8f fb 3d e4 56 3f 3d 7a 9f 9e 3c e0 01 99 bd
       0.12283196 0.046713725 0.019363154 -0.07471061
000250 a0 cc 59 bc 1e 07 82 3d 47 d3 21 be 41 7f 15 be
       -0.013293415 0.06349014 -0.15803252 -0.14599325
000260 d8 76 9a bc bd f2 67 3d 94 fe ba bc 80 43 a0 3d
       -0.018855497 0.056627978 -0.02282647 0.078253746
000270 b1 72 9d 3c 01 c7 ad bd 2a 4e 23 bd 9c a8 90 3c
       0.019219728 -0.084852226 -0.039869465 0.017658524
000280 89 b5 39 bc 4c 5e 9d 3d 7c 17 1d bd 4f c9 76 3c
       -0.011334785 0.07684001 -0.038352475 0.015062644
000290 51 79 a3 3d 16 9a e5 bd 3a e5 11 bc ef a9 a4 bc
       0.07982124 -0.1121103 -0.0089047495 -0.020100562
0002a0 f1 c2 ac bd 49 a5 2f bd d0 59 34 bd cf bb 71 3e
       -0.084356196 -0.042882238 -0.044030964 0.236068
0002b0 92 17 16 3d 58 d5 b3 3d a2 b3 91 3e 2a aa 1e 3d
       0.036643572 0.087809265 0.2845736 0.0387365
0002c0 f4 c3 d8 3d ea 8d ae 3e 0b 7c 1f 3e ee f5 85 3e
       0.1058425 0.34092647 0.15574662 0.26164192
0002d0 5e c2 e6 bd 16 78 10 bc 91 6b ab bd 07 67 a9 bd
       -0.11267541 -0.008817693 -0.08370126 -0.08271604
0002e0 72 52 26 3d 88 65 71 bd c8 f9 f8 3c c4 01 28 3c
       0.04060597 -0.05893472 0.030392542 0.010254327
0002f0 58 e8 58 bd 86 63 15 be 1f b4 3c bd 98 bb ff bd
       -0.052955955 -0.14588746 -0.046070214 -0.124869525
000300 d9 fb 3b bd dd 5d 36 3d 62 d9 41 3b 12 fe 93 bd
       -0.045894478 0.04452311 0.0029579033 -0.072261944
000310 d5 f3 a4 bd d6 58 97 ba 1a ba 23 3d f0 66 7c bd
       -0.0805432 -0.0011546861 0.039972402 -0.061621606
000320 c9 a6 0b 3e 43 15 cc bd 84 bd e3 bd c4 fd 46 3d
       0.13637842 -0.09964993 -0.111201316 0.048581854
000330 f4 2a 6e be 8e fe 9a be 89 fe 85 be 33 b1 96 3e
       -0.23258573 -0.30272335 -0.26170757 0.29432067
000340 62 9c 8c 3e 0b 5b cd 3e 8e c2 12 3f 40 1d 0b 3d
       0.2746306 0.40108523 0.57328117 0.03396344
000350 07 f7 1b 3e fb 49 6c 3c 92 68 c6 3b 39 e5 c6 bd
       0.15230952 0.014421935 0.006054946 -0.097116895
000360 ad 66 04 3e c6 90 77 3d e0 3d 4b 3e b9 d3 c2 3c
       0.12929793 0.0604408 0.19847822 0.023782598
000370 ed 00 9c 3d b6 f2 18 3e ee 45 8e 3e 63 07 81 3e
       0.07617364 0.14936337 0.27787727 0.25200948
000380 56 92 93 3e 95 c4 09 3d f8 c4 e3 3d 99 ca ff 3d
       0.28822583 0.03363474 0.11121553 0.12489814
000390 26 17 5c 3e d0 f0 af 3c 51 f1 b6 3d e9 03 fa 3d
       0.21493205 0.021477133 0.08932746 0.12207777
0003a0 f9 f5 9c 3c 33 d2 93 bd 09 a9 cc 3d 37 5a 13 3e
       0.019160258 -0.07217827 0.099931784 0.14389883
0003b0 fa a0 1e 3e a7 87 26 bc 12 36 06 be e6 19 69 bc
       0.15491095 -0.010164178 -0.13106564 -0.014227366
0003c0 e4 28 0c 3e 7e a3 8c bc 58 e3 5f 3d e2 51 21 3d
       0.13687474 -0.017167803 0.05466017 0.03938473
0003d0 08 06 5c 3d 11 0a e8 3d dc d7 9c 3e 8b 6d 0f bc
       0.05371669 0.11330045 0.30633438 -0.008754144
0003e0 c7 60 0a 3e c6 00 be 3e 23 e1 9b 3e 76 e6 5b 3e
       0.1351348 0.37109965 0.30445203 0.21474633
0003f0 f5 85 71 3e 8f 2c 75 3e fa f8 85 3e b7 38 61 3e
       0.23586257 0.23942779 0.26166517 0.21994291

5.bias f4 [32]
000000 04 2d 14 3c 28 5b 31 bd f9 c5 d0 3d 37 f0 aa 3d
       0.009043936 -0.043299824 0.1019401 0.083465986
000010 ea c8 a5 3d 8e 74 0b 3e 6c 8f a7 3d 5a c0 29 3d
       0.08094962 0.13618681 0.081816524 0.041443206
000020 81 ea eb bc 12 cd b8 bc db fa 23 3c 91 e8 22 3d
       -0.028798344 -0.022558723 0.010008539 0.039772574
000030 25 d4 15 3d dc b6 ab 3d a2 d0 9d 3d 10 8f 26 3c
       0.03657927 0.08384487 0.07705809 0.010165945
000040 b2 2b 97 3d b7 18 c4 bd c7 e7 df 3c e0 fa 99 bd
       0.07381381 -0.095750265 0.0273322 -0.07518554
000050 02 b8 a2 3c e5 c6 16 3d 31 61 59 3d 4d e0 fc bc
       0.019863132 0.036810774 0.053071205 -0.030868674
000060 15 3b 0c 3c 46 75 8d bd 11 77 ed 3d b8 07 b3 3d
       0.008559008 -0.06907134 0.11594976 0.087417066
000070 e8 38 76 3d 21 33 9f 3d 9b 69 47 bd ed 1d a1 3b
       0.060112864 0.07773424 -0.048684698 0.0049168975

7.weight f4 [5, 32, 1, 1]
000000 16 a4 61 3f f0 f2 fa be 13 97 e0 3e 0a 53 d3 be
       0.88141 -0.49013472 0.4386526 -0.4127429
000010 e0 70 c4 be 23 a0 9b 3e f0 4e ea be 5b ef 9f 3e
       -0.38367367 0.30395612 -0.4576335 0.312373
000020 80 78 fe be e1 dc d8 be fc a5 f1 be c6 2b 32 3f
       -0.4970131 -0.42356017 -0.4719695 0.6959804
000030 91 d9 dc 3e 3e 9c de 3e 30 58 8b 3f 5d 98 f1 be
       0.4313474 0.43478578 1.0886288 -0.47186556
000040 95 71 a3 3e 7c bd e7 be 2e 9b 90 3e d8 30 fd be
       0.31922594 -0.45261753 0.28243393 -0.49451327
000050 db 8f d2 be 68 26 e7 be 87 2a d4 be 93 ed c1 be
       -0.41125378 -0.4514649 -0.41438696 -0.37876567
000060 a0 54 b3 be d7 0b 01 bf 29 30 9b 3e 62 41 98 3e
       -0.350255 -0.5040869 0.3031018 0.29737383
000070 ca 34 cc 3e 38 97 00 bf f5 b0 07 bf f5 7c 80 be
       0.39884025 -0.5023074 -0.5300439 -0.25095335
000080 e8 55 10 be cd 1c 3f be d5 f9 cb bb 27 0b 3f 3e
       -0.1409527 -0.1866333 -0.0062248507 0.18656598
000090 e2 c6 14 bd 5e a6 76 3d 2d 11 a1 3d ea 25 11 bd
       -0.036322482 0.060217254 0.07864604 -0.03543655
0000a0 3a 94 3c 3e f4 6b 4b 3b fe b3 e9 3c c4 8a 3a 3e
       0.18415919 0.0031039687 0.02852821 0.18216997
0000b0 cb 9a 08 be 32 0c ea bd cc d3 3c be fd 69 5d 3d
       -0.13340299 -0.11428107 -0.18440169 0.054056156
0000c0 4f 9c dc 3d b8 95 4a be 95 93 81 bd bf 0d f3 3c
       0.10772001 -0.19783676 -0.06326977 0.02966964
0000d0 c8 52 6e 3e 74 4c e3 bd 9b b9 90 3d 9c 0a e0 bd
       0.23273766 -0.11098567 0.070666514 -0.109395236
0000e0 9d 1a 32 be 29 99 03 be 08 2e 1f 3d e9 63 01 be
       -0.17392965 -0.12851395 0.03886226 -0.12635769
0000f0 96 c8 ea 3d e3 96 7c 3c 87 ad b1 3d ee 69 e1 bd
       0.1146404 0.015416834 0.08675676 -0.110065326
000100 ff c4 e9 bd 66 bb f8 3d 73 4c f4 bd 13 bc 53 3e
       -0.11414527 0.121451184 -0.11928644 0.20677213
000110 c2 0a 83 3d f9 bd ab 3d c6 8f 55 3e 90 13 95 3d
       0.06398536 0.08385844 0.20855626 0.07279122
000120 38 5a dd 3d b8 c2 09 be d9 63 cf 3d 9f 72 07 3e
       0.108082235 -0.13453186 0.10126466 0.13227318
000130 87 04 09 be 08 1e a2 bd e3 df 34 be 90 88 02 be
       -0.13380633 -0.07915884 -0.17663531 -0.12747407
000140 fa 8d b7 3d 2a cc d8 3b 93 9e 07 bc 44 b5 62 be
       0.08962627 0.006616135 -0.008277553 -0.2213946
000150 33 0e ee 3c 16 3d 64 be 92 ea 95 bd 8d 72 a6 bd
       0.029059505 -0.22288927 -0.07320131 -0.081273176
000160 43 a3 08 3c 75 e4 28 bc 4d ab 3c 3d 37 4c 08 3e
       0.008339706 -0.010308375 0.046061803 0.13310324
000170 85 13 b2 bd 60 19 53 bc 19 e4 26 bd b7 0a fc 3d
       -0.08695129 -0.012884468 -0.040744875 0.12306731
000180 0e bc d3 bd a9 74 e9 bc 35 e9 06 be 88 6b 24 3d
       -0.10338603 -0.02849801 -0.13174899 0.040141612
000190 10 e2 85 be 58 61 22 be 80 a6 1e be 98 86 22 3d
       -0.26149035 -0.15857446 -0.15493202 0.03967914
0001a0 86 80 04 3e 8a 47 30 3e 0d 13 3b be c7 4b ea 3d
       0.12939653 0.1721479 -0.18268986 0.11440235
0001b0 00 5a 73 3d 17 f5 ac 3d 8a f8 be 3c 14 70 16 3e
       0.059412003 0.08445185 0.023311872 0.14691192
0001c0 f4 12 f9 3d 24 fe b0 bd 8b f4 a7 bd b6 4a 40 3d
       0.12161818 -0.086422235 -0.0820094 0.04694625
0001d0 17 b5 c6 3d dc 2d c1 bd cb 3e a9 bd 81 83 91 3d
       0.09702509 -0.09432575 -0.0826393 0.071051605
0001e0 aa b2 2d 3e 49 28 d5 3d 5b 85 a7 bb 50 89 5e be
       0.16962686 0.104080744 -0.0051123328 -0.21732068
0001f0 93 64 e9 3d 60 da 44 be b8 fa f7 3c 99 ad 15 3e
       0.11396136 -0.19223928 0.03027092 0.14617004
000200 4a 8b b3 bd 2a 6d c7 bd df d6 24 be 51 52 8a bd
       -0.08766802 -0.09737618 -0.16097592 -0.06753982
000210 df 60 ab be 68 ac ed bb 8e b0 1f 3d 37 79 b1 3d
       -0.33472344 -0.0072532184 0.038986735 0.08665698
000220 59 90 c1 3d 95 da ff bc 63 d2 06 3d 9e 62 06 3e
       0.0945136 -0.031232158 0.032915484 0.13123557
000230 c8 0a 91 bd 16 25 83 3d c4 00 34 3d 34 d9 42 3e
       -0.070821345 0.06403558 0.043946043 0.19028169
000240 9a 9c f5 bc a2 ee 42 be 03 ff ff 3d 42 e7 53 3d
       -0.0299819 -0.19036344 0.124998115 0.051734217
000250 76 54 8d bd 0a 61 ea 3d 90 bb 4b 3e 81 0a 19 3d
       -0.06900875 0.1144429 0.19895768 0.037363533
000260 d3 33 d2 3d 6f da 10 bd 8b 04 a6 3b 2c 66 1c be
       0.10263791 -0.035364565 0.0050664595 -0.1527335
000270 03 cd 58 bd 2e 69 97 bd 48 c7 69 3a c7 ec f4 bd
       -0.05292989 -0.07393108 0.000891794 -0.11959224

7.bias f4 [5]
000000 17 07 26 3e eb 7a 85 bb 7c 3c a1 bd 9d 85 d9 bc
       0.16213642 -0.004073491 -0.078728646 -0.02655297
000010 b1 70 ce bd
       -0.10080088
