MTCNN02/pnet.pt (torch_old, 27933 bytes, 8 tensors)

0.weight f4 [10, 3, 3, 3]
0	0xbdbf2df2	-0.09334935
1	0x3d93a427	0.07209044
2	0x3dd35a6d	0.10319982
3	0x3d187119	0.037217233
4	0xbd30b360	-0.043139815
5	0x3dce7514	0.10080925
6	0x3ddd8e48	0.108181536
7	0x3e26f2f4	0.16303617
8	0x3d4414b1	0.047871295
9	0x3e35df4e	0.17760965
10	0x3e06ec0a	0.1317598
11	0xbe609700	-0.21932602
12	0x3e212934	0.15738374
13	0x3e256266	0.16150817
14	0x3d1e1db7	0.038602557
15	0xbe6e25f4	-0.23256665
16	0x3d5bab0b	0.053629916
17	0x3e1a5675	0.15072043
18	0x3bd7e0df	0.006588086
19	0xbdeebd8f	-0.11657249
20	0xbd982871	-0.074295886
21	0xbb1bf1cb	-0.0023795243
22	0xbdceefd3	-0.101043366
23	0xbd66b5f0	-0.056325853
24	0xbdfe3e1c	-0.1241419
25	0xbd391848	-0.045189172
26	0xbdee27df	-0.116286986
27	0x3c6bfc63	0.014403435
28	0x3d694da2	0.056958802
29	0xbc786c6f	-0.015162571
30	0x3e0a3336	0.13496098
31	0x3e067b27	0.13132916
32	0xbd2bbb8c	-0.041926906
33	0x3ded092e	0.115740165
34	0xbc6cbb64	-0.014448974
35	0x3dc939e3	0.09825494
36	0x3d8c35b7	0.06846183
37	0x3e14b083	0.14520459
38	0xbc04143c	-0.008061465
39	0xbc1e0880	-0.009645581
40	0x3e3c2240	0.1837244
41	0xbdac313e	-0.0840783
42	0x3e056a85	0.13028915
43	0xbde2f193	-0.11081233
44	0x3dfd6be8	0.12374097
45	0x3e14db32	0.14536741
46	0xbb83b5c8	-0.0040194727
47	0x3b85d81b	0.0040845997
48	0x3e017e2c	0.12645787
49	0xbe3145c7	-0.17311774
50	0xbdd0a134	-0.10186997
51	0x3c0c7f66	0.008575296
52	0x3e20b812	0.15695217
53	0xbdd56eaa	-0.10421498
54	0x3dc8d387	0.09805971
55	0x3e194b1f	0.14970063
56	0x3d875384	0.06607726
57	0x3e61e7f5	0.22061141
58	0xbe03acd3	-0.12858896
59	0xbe008191	-0.12549426
60	0x3e168160	0.1469779
61	0x3dc18b03	0.094503425
62	0x3dcdfa90	0.10057557
63	0xbd5e8bb8	-0.054332465
64	0x3dd4a5a1	0.10383154
65	0x3e08bcf4	0.1335333
66	0x3d850e57	0.06496876
67	0x3d8eb964	0.06968954
68	0x3e4dba79	0.20090665
69	0x3d698a67	0.057016756
70	0x3e1cff79	0.1533183
71	0xbd88d918	-0.06682032
72	0xbd36b718	-0.044608206
73	0xbe196255	-0.14978917
74	0x3cf3b050	0.029747158
75	0x3e3823cb	0.17982404
76	0x3e1d0127	0.15332471
77	0x3e47ae1e	0.19500014
78	0x3e3b9832	0.18319777
79	0x3d53134c	0.051532075
80	0x3c54bca7	0.012984431
81	0xbe29e99a	-0.16593018
82	0x3d7faf00	0.062422752
83	0x3db36cd3	0.08760991
84	0xbd7138af	-0.05889195
85	0x3dcbfe8f	0.099606626
86	0x3e4f5bbe	0.2024984
87	0xbdf3b3f8	-0.11899561
88	0x3e4a4d28	0.19755995
89	0x3da932f8	0.08261675
90	0xbe33c0c4	-0.17554003
91	0x3d5758c9	0.052574906
92	0xbcd1deff	-0.025619028
93	0x3de3c1d8	0.11120957
94	0xbe214b63	-0.15751414
95	0xbb694221	-0.0035592394
96	0xbd3d61da	-0.046235897
97	0x3e35bac6	0.1774703
98	0x3e115c7e	0.14195439
99	0xbe245dfc	-0.16051477
100	0x3e0b22e9	0.13587536
101	0x3dc3575d	0.095381476
102	0x3dc9667d	0.09834001
103	0x3e1fc5ce	0.156028
104	0xbb0aefe3	-0.0021200113
105	0xbe1afc1d	-0.15135236
106	0xbd4a2bb1	-0.049358074
107	0xbd4970e8	-0.04917994
108	0x3da148f2	0.07875241
109	0xbd879a90	-0.06621277
110	0xbe0ff4dc	-0.1405825
111	0xbd229f28	-0.039702564
112	0xbe1617b2	-0.14657477
113	0x3d6ebda9	0.058286343
114	0x3dac8c65	0.08425216
115	0x3da9b766	0.082869336
116	0xbc98da06	-0.01865865
117	0x3d8d6b89	0.06905276
118	0x3d6c6839	0.057716582
119	0xbd68bdd4	-0.05682166
120	0x3dca4164	0.098757535
121	0xbcf7aae8	-0.030232862
122	0x3c60a56d	0.013711316
123	0x3e1a96ec	0.15096635
124	0x3e117bbb	0.14207356
125	0x3d7b9e94	0.06143053
126	0x3e67ffb2	0.22656134
127	0x3def4c40	0.116844654
128	0x3e8ad514	0.2711569
129	0x3da79a86	0.0818377
130	0x3e501951	0.20322157
131	0x3d03c22d	0.032167602
132	0xbdc596de	-0.09647916
133	0x3e1cf19a	0.15326539
134	0x3e02b057	0.12762581
135	0xbe331cb6	-0.17491421
136	0xbe22d74d	-0.15902443
137	0xbe1eccd9	-0.1550783
138	0xbc5eea84	-0.013605718
139	0x3dfbfd41	0.12304164
140	0x3d5d6c10	0.054058135
141	0xbd28314b	-0.041062634
142	0xbe5579ac	-0.20847195
143	0x3cbbf7c5	0.022945294
144	0xbc064693	-0.008195537
145	0x3e4a7b38	0.19773567
146	0xb96171cc	-0.00021500065
147	0x3df6a968	0.120440304
148	0xbd1bbbc2	-0.038020857
149	0x3db04551	0.08606971
150	0x3d9dff45	0.077147044
151	0x3a257b9f	0.00063126715
152	0x3dd8a021	0.10577417
153	0x3e1089a0	0.14115
154	0x3dcf2320	0.101141214
155	0xbdc27b92	-0.094962254
156	0x3bcb2611	0.006199606
157	0xbd9372b2	-0.07199611
158	0x3e0baddb	0.1364054
159	0x3e5e0e3a	0.21685115
160	0xbd45cc3c	-0.048290476
161	0xbcce396d	-0.025173867
162	0x3c7a136a	0.015263418
163	0xbd1b93ca	-0.03798274
164	0xbdbc480e	-0.09193431
165	0x3d8dd20e	0.069248304
166	0x3e3cb1e0	0.18427229
167	0x3e445904	0.19174582
168	0x3dd76d86	0.10518937
169	0x3d1def19	0.0385581
170	0xbe1bd8f8	-0.15219486
171	0xbd262805	-0.04056551
172	0xbe7915b3	-0.24324684
173	0xbd906e56	-0.07052295
174	0xbe3c6206	-0.18396768
175	0x3e124dd9	0.14287509
176	0x3e465708	0.19369137
177	0x3d3fb190	0.046800196
178	0x3e1f604f	0.15564083
179	0xbdba9713	-0.09110846
180	0xbe7f6deb	-0.24944274
181	0xbe40ed88	-0.18840611
182	0x3cd7d0ae	0.026344623
183	0x3df8ccd3	0.12148442
184	0x3e3d1ef3	0.18468837
185	0x3e5c05da	0.21486607
186	0x3e15cafc	0.14628214
187	0xbd0ebc2a	-0.034847416
188	0xbe530aac	-0.2060954
189	0xbe4b66a0	-0.19863367
190	0xbe21ec7b	-0.15812866
191	0xbcb5237d	-0.022111649
192	0xbe0d517d	-0.13800617
193	0xbe9ba955	-0.30402628
194	0xbe48da5c	-0.19614547
195	0xbd938a24	-0.072040826
196	0xbe726595	-0.23671563
197	0xbd7e1cc8	-0.062039167
198	0xbddbb5a8	-0.107280076
199	0xbda6d6a4	-0.08146408
200	0x3c8f4cfb	0.017492762
201	0xbdbeaea1	-0.093106516
202	0xbe1b7ce7	-0.15184365
203	0xbe8cf862	-0.2753325
204	0xbe5ca0dd	-0.2154574
205	0xbe91affe	-0.28454584
206	0xba5b47a3	-0.0008364862
207	0x3db96d8c	0.090540975
208	0x3d9349af	0.071917884
209	0x3d5e7662	0.054312117
210	0x3cef4710	0.02920869
211	0xbea0fe7e	-0.31444162
212	0xbe835e35	-0.25657812
213	0xbe6c7c82	-0.23094371
214	0xbe8cb123	-0.27478895
215	0xbcea6095	-0.028610507
216	0xbe0284f9	-0.12746038
217	0x3da9d76d	0.08293042
218	0xbd1bd643	-0.038046133
219	0x3e216cff	0.15764235
220	0x3d37bcba	0.044857718
221	0x3cd824d9	0.026384758
222	0x3ccb8530	0.024843782
223	0x3c96afba	0.01839434
224	0x3ddb1af3	0.106984995
225	0x3d0bd43f	0.03413796
226	0xbe2b2ed3	-0.16717081
227	0xbe406620	-0.18788958
228	0x3caa40df	0.020782886
229	0x3e165be5	0.14683492
230	0xbe016508	-0.12636197
231	0x3e18171b	0.14852564
232	0x3d5b3416	0.05351647
233	0x3e128549	0.14308657
234	0x3e15acfd	0.14616771
235	0xbe806092	-0.25073677
236	0xbb7828a8	-0.003786603
237	0xbd55e193	-0.052217077
238	0xbd17129f	-0.036882993
239	0x3e036f89	0.12835516
240	0xbdbf6717	-0.09345835
241	0x3e39a165	0.18127973
242	0xbd755066	-0.059891127
243	0x3e134dac	0.14385098
244	0x3ddab817	0.106796436
245	0x3d051163	0.032487284
246	0x3e4b6ad0	0.19864964
247	0xbd3c30bf	-0.045944925
248	0xbbbc557e	-0.005747496
249	0xbe09694e	-0.13419077
250	0xbd88c12e	-0.06677471
251	0xbe1c2f25	-0.15252359
252	0x3c04ed88	0.0081132725
253	0x3e0daffa	0.13836661
254	0x3def7847	0.11692863
255	0x3e212dc5	0.15740116

0.bias f4 [10]
0	0x3dfeb59c	0.12436983
1	0x3e7cbfd3	0.2468255
2	0xbd696f69	-0.056991015
3	0xbdc91ab7	-0.098195486
4	0xbda7ec3d	-0.08199356
5	0x3e40fa15	0.18845399
6	0x3c84f6a3	0.016230887
7	0xbceddc15	-0.029035607
8	0xbdc7d21e	-0.097568735
9	0xbd28b93b	-0.041192275

3.weight f4 [16, 10, 3, 3]
0	0x3dd8e83a	0.10591169
1	0xbdd5d410	-0.10440838
2	0x3cc26ca2	0.02373344
3	0x3cc54fc4	0.024085887
4	0xbddfc659	-0.10926504
5	0xbc069b55	-0.008215745
6	0x3c1ede32	0.00969653
7	0xbcca3cc4	-0.024687178
8	0xbd043f5c	-0.032286987
9	0xbb89bbf3	-0.0042033135
10	0x3d7fccab	0.062451046
11	0xbd466577	-0.04843661
12	0x3b86008e	0.0040894216
13	0xbcffed2c	-0.031241022
14	0x3da5a921	0.080888994
15	0xbcb642a0	-0.022248566
16	0x3dc82738	0.097731054
17	0x3de3d8e6	0.111253545
18	0xbdb22fc5	-0.087005176
19	0x3d7f7aa6	0.062372826
20	0xbd682b97	-0.056682196
21	0x3d223e90	0.039610445
22	0xbc2c0b15	-0.010500689
23	0x3d729df5	0.05923267
24	0x3d86d6e1	0.06583954
25	0x3d0d5050	0.03450042
26	0x3d33e2a3	0.04391731
27	0xbd1e6101	-0.03866673
28	0xbd8eb9ea	-0.06969054
29	0x3e0698ce	0.13144228
30	0xbe000417	-0.1250156
31	0x3d55ffe6	0.052245997
32	0xbdcd1d58	-0.100153625
33	0xbc0d2e91	-0.008617059
34	0xbdb682d7	-0.089116745
35	0xbdb341ac	-0.0875276
36	0x3bd17e5c	0.006393237
37	0xbdbe954e	-0.09305821
38	0x3dcfd389	0.10147769
39	0x3c448881	0.011995436
40	0x3df40197	0.11914366
41	0x3db26d43	0.08712246
42	0xbd8d246a	-0.06891711
43	0x3e124262	0.14283136
44	0xba14ca0b	-0.00056758587
45	0x3d8d350e	0.06894885
46	0x3dbd4f6e	0.09243666
47	0x3d28afd3	0.041183304
48	0x3dbbcc15	0.09169785
49	0x3cee9c52	0.029127274
50	0x3deea263	0.116520666
51	0x3e06ee9a	0.13176957
52	0x3df56797	0.11982649
53	0x3d7ae550	0.061253846
54	0xbd6358e8	-0.05550471
55	0xbba4b06e	-0.005025915
56	0xbd12c5e4	-0.035833254
57	0xbe40b355	-0.1881841
58	0xbdc42235	-0.09576837
59	0xbc96c9b7	-0.018406732
60	0xbdbacba5	-0.09120873
61	0xbd481c22	-0.048854955
62	0xbd5ed491	-0.054401938
63	0x3d852245	0.06500677
64	0x3ab3a2f7	0.0013705184
65	0xbe13dbd5	-0.14439328
66	0x3db53857	0.088486366
67	0x3d9375ea	0.07200225
68	0xbda6109e	-0.08108638
69	0x3d73ee37	0.05955335
70	0x3d3cfc84	0.046139255
71	0x3d6d7ef2	0.057982393
72	0xbdb11fcf	-0.08648645
73	0xbd17441a	-0.03693018
74	0xbe177479	-0.14790525
75	0xbe191d79	-0.14952649
76	0xbe0ccc78	-0.13749874
77	0xbe222138	-0.15832984
78	0xbd974cc6	-0.0738769
79	0xbd94e3cc	-0.07270011
80	0xbdfa1d4f	-0.122126214
81	0xbdb25ddb	-0.08709308
82	0xbe1d1f06	-0.15343866
83	0xbddf7de2	-0.10912682
84	0xbda4eddf	-0.08053183
85	0xbe03502a	-0.12823549
86	0x3d8ebbb2	0.06969394
87	0xbdde83a2	-0.10864951
88	0xbd8d3338	-0.06894535
89	0xbdbbb150	-0.09164679
90	0x3d9a1d49	0.07525117
91	0xbcacb630	-0.021082968
92	0xbd8bcbb1	-0.068259604
93	0x3d3b892a	0.045785107
94	0xbd458afb	-0.048228245
95	0x3cca0974	0.02466271
96	0xbdd74faf	-0.10513245
97	0x3c97e779	0.018542992
98	0xbdf6c1c6	-0.12048678
99	0xbc5fcca3	-0.013659629
100	0x3c1ee0cc	0.00969715
101	0xbd951609	-0.072795935
102	0xbd5a53b9	-0.0533025
103	0x3d8fb9ac	0.07017836
104	0x3c279bca	0.010230014
105	0xbd46cafa	-0.048533417
106	0xbb8e9bbe	-0.004352062
107	0xbd4f87ce	-0.050666623
108	0xbd5b5127	-0.05354419
109	0xbcdb3f17	-0.026763482
110	0xbde071f6	-0.10959236
111	0xbd8e3329	-0.06943352
112	0xbddcb859	-0.10777349
113	0xbda7dc8d	-0.081963636
114	0xbc79f81d	-0.015256909
115	0x3cf62f2f	0.030051796
116	0xbe052a59	-0.13004436
117	0x3dd0e65d	0.10200188
118	0x3dbbf019	0.09176654
119	0x3e03b163	0.12860636
120	0x3d5037b1	0.05083436
121	0x3d0c883b	0.034309607
122	0x3ba37d84	0.004989328
123	0xbc41aef6	-0.011821499
124	0xbda380bf	-0.07983541
125	0x3d819b5b	0.0632846
126	0x3d31f66f	0.043447908
127	0xbde4b4ca	-0.11167295
128	0xbc34a8da	-0.0110265855
129	0xbd510787	-0.05103257
130	0x3d9f99e8	0.07793027
131	0xbd94719c	-0.07248232
132	0xbdfff63f	-0.124981396
133	0xbde449ec	-0.11146912
134	0x3c86f73a	0.016475309
135	0x3c9ca966	0.019123744
136	0xbdaefac8	-0.085439265
137	0xbe139114	-0.14410812
138	0xbd1715d6	-0.03688606
139	0xbcc7b840	-0.02437985
140	0xbd0f6206	-0.03500559
141	0xbe0a8ee1	-0.13531066
142	0xbdda8eff	-0.106718056
143	0xbc54410c	-0.0129549615
144	0xbb9187da	-0.0044412436
145	0x3e45a31b	0.19300501
146	0x3e11a086	0.14221391
147	0xbc7b7b23	-0.015349182
148	0x3d96b9a5	0.07359628
149	0x3d71b78b	0.05901293
150	0xbdea3437	-0.114357404
151	0x3db2fa5b	0.08739158
152	0x3de31190	0.11087334
153	0xbd74613d	-0.059663046
154	0x3d9fde1f	0.07806038
155	0xbd749a5c	-0.05971752
156	0x3d2af7fc	0.041740403
157	0x3bc04eac	0.0058687534
158	0xbdd63420	-0.10459161
159	0x3d31e2fe	0.043429367
160	0x3e353ce7	0.17699014
161	0x3e04cf46	0.12969694
162	0x3e1fbf9f	0.15600441
163	0x3e3f6f15	0.18694718
164	0x3e033200	0.12812042
165	0x3daed759	0.08537168
166	0x3cd6cb20	0.026219904
167	0x3cdb9f28	0.02680929
168	0xbd339de3	-0.043851744
169	0x3cee2fbf	0.029075501
170	0xbdc14676	-0.094372675
171	0xbdcc72de	-0.09982847
172	0xbcccf482	-0.025018934
173	0x3d7b6a0d	0.061380435
174	0x3cab57b5	0.020915845
175	0xbd8034f6	-0.062601015
176	0xbcad5272	-0.021157477
177	0x3c4814ba	0.012211973
178	0x3c3b1d17	0.01142051
179	0x3e37f2d0	0.1796372
180	0xbd48570f	-0.04891115
181	0xbd41fb64	-0.047358885
182	0x3d9dce0b	0.07705315
183	0x3cf53c2e	0.029935922
184	0xbdbb1e6f	-0.09136664
185	0xbd4b0fc8	-0.049575597
186	0xbdac9a87	-0.08427911
187	0x3d9f6d4b	0.07784518
188	0xbda14be3	-0.07875802
189	0xbbaf1a77	-0.005343731
190	0xbdcefbd8	-0.10106629
191	0x3d1fb143	0.03898741
192	0x3cb4c8eb	0.022068461
193	0x3cf19db6	0.029494148
194	0xbda89fd2	-0.08233608
195	0xbccf367e	-0.025294539
196	0x3d74a141	0.059724096
197	0x3d82ccbd	0.06386707
198	0x3dc38b3a	0.0954804
199	0xbce12d1c	-0.02748733
200	0xbd39f866	-0.045402907
201	0xbdf76a96	-0.120808765
202	0x3dbd9d1b	0.09258481
203	0x3d43d53c	0.047810778
204	0xbdf652bc	-0.12027499
205	0x3da5916d	0.080843784
206	0xbd61425d	-0.05499493
207	0xbd461a2b	-0.0483648
208	0xbc7d9475	-0.015477289
209	0xbd8c837c	-0.06861016
210	0x3d8e948e	0.06961928
211	0x3d4fcbe2	0.050731547
212	0xbcced2b1	-0.02524695
213	0xbe16f38e	-0.14741346
214	0x3d2fb91c	0.042901143
215	0x3d17e7f5	0.037086446
216	0x3d8cb502	0.06870462
217	0xbd0bd6f7	-0.034140553
218	0x3c9cd572	0.019144747
219	0x3dd4493d	0.103655316
220	0x3c1c8f68	0.009555675
221	0xbde237e2	-0.11045815
222	0xbdb1dcd9	-0.086847015
223	0x3cf1b24a	0.02950396
224	0x3ce852ad	0.028359735
225	0x3d831536	0.0640053
226	0xbde3b9f4	-0.11119452
227	0xbd7e6851	-0.062111203
228	0x3d07f996	0.033197008
229	0xbd805ecd	-0.06268082
230	0xbd2cbd6b	-0.04217283
231	0x3cc948f7	0.024570925
232	0xbd4df935	-0.05028649
233	0x3d78676e	0.060645513
234	0xbd01c9a7	-0.03168645
235	0xbc85ae37	-0.016318424
236	0xbd93c538	-0.07215351
237	0xbdff6a1f	-0.12471413
238	0x3d9268fa	0.07148929
239	0x3d3f2e26	0.04667487
240	0xbcabaef5	-0.02095745
241	0x3d1444ee	0.03619855
242	0x3c1fa166	0.00974307
243	0xbd289267	-0.041155245
244	0x3deb5dc2	0.11492492
245	0xbcdaec9c	-0.026724152
246	0x3d2e068d	0.042486716
247	0x3c07b530	0.008282945
248	0x3e1d409f	0.15356682
249	0x3e11e09b	0.14245836
250	0x3e0b4425	0.13600214
251	0x3e492eec	0.19646806
252	0x3deafc87	0.11473947
253	0x3daf96fb	0.08573719
254	0xbd80acb6	-0.06282942
255	0xbd3b2c22	-0.045696385

3.bias f4 [16]
0	0x3dc5de7d	0.09661577
1	0xbc8d8755	-0.017276445
2	0xbdb201ff	-0.08691787
3	0x3dad407b	0.08459564
4	0x3e088128	0.13330519
5	0xbdd0c42e	-0.10193668
6	0x3e20c9f3	0.15702038
7	0xbd5914a0	-0.052998185
8	0xbdfa42bd	-0.122197606
9	0x3e2a0f66	0.16607437
10	0xbd17c92e	-0.037057094
11	0xbd587584	-0.052846447
12	0x3d3bb404	0.045825973
13	0xbdac88ba	-0.08424516
14	0xbd70cb1f	-0.05878746
15	0xbd8d94f9	-0.0691318

5.weight f4 [32, 16, 3, 3]
0	0x3db66212	0.08905424
1	0xbe3851b0	-0.17999911
2	0xbe014098	-0.12622297
3	0xbcbe1613	-0.023203885
4	0xbe4ca553	-0.19984941
5	0xbd56cadd	-0.05243956
6	0xbd1faf0c	-0.038985297
7	0xbda7f63c	-0.08201262
8	0xbd182f46	-0.03715446
9	0xbd49730d	-0.049181987
10	0xbdc82745	-0.09773115
11	0xbcb28c0f	-0.0217953
12	0x3d05b322	0.032641537
13	0x3d927284	0.07150748
14	0xbd362b29	-0.044474754
15	0x3e0a20d7	0.1348909
16	0x3ca17d92	0.019713197
17	0xbaba2575	-0.0014201837
18	0x3dcfafe6	0.10140972
19	0xbd33ff0f	-0.043944415
20	0xbd018b52	-0.031627007
21	0xbd2bea88	-0.041971713
22	0x3ce615b0	0.028086513
23	0xbdef19ff	-0.1167488
24	0x3de4cae6	0.11171512
25	0xbcafbcc9	-0.021452324
26	0xbd92002e	-0.071289405
27	0xbda9f5d9	-0.08298845
28	0xbd66dacb	-0.056361
29	0x3df0ddac	0.117610306
30	0xbdfec194	-0.12439266
31	0xbe1c2867	-0.15249787
32	0xbd919b9b	-0.071097575
33	0xbbde32ff	-0.0067809816
34	0x3ae3a09c	0.0017366591
35	0xbc7a64ab	-0.01528279
36	0x3d3ea213	0.046541285
37	0xbe13ea69	-0.14444889
38	0xbdea888b	-0.11451825
39	0xbd9cfa62	-0.07664944
40	0xbe5d3867	-0.21603547
41	0xbe0b320e	-0.13593313
42	0xbcaa9979	-0.020825135
43	0xbe1cddf9	-0.15319051
44	0xbdc31870	-0.095261455
45	0x3d6237e4	0.055229083
46	0x3d7459c7	0.05965593
47	0xbd5994df	-0.05312049
48	0x3d140dc8	0.036145955
49	0x3dc9918d	0.09842215
50	0x3d0f1170	0.03492874
51	0x3d412e76	0.04716345
52	0x3e08f45a	0.13374463
53	0x3e075bc7	0.13218604
54	0xbda14a44	-0.07875493
55	0xbce23ddd	-0.02761739
56	0xbdb55fda	-0.08856173
57	0xbcc609df	-0.024174629
58	0xbcd3ffb5	-0.025878767
59	0xbd27d6f8	-0.040976495
60	0xbd6e090b	-0.058114093
61	0x3d14e507	0.03635123
62	0x3d0115a0	0.031514764
63	0x3da95d18	0.08269709
64	0x3d57566b	0.05257265
65	0xbdf9982e	-0.12187229
66	0x3de7e424	0.11322811
67	0x3da7bfb5	0.08190862
68	0x3cea83ae	0.028627243
69	0x3d940b9c	0.07228777
70	0x3d9b2839	0.07576031
71	0x3de25b41	0.110525616
72	0x3c828767	0.015933705
73	0x3c678a06	0.014132028
74	0xbcc38014	-0.023864783
75	0x3d93d368	0.07218057
76	0x3dd20763	0.10255315
77	0xbd16a244	-0.036775842
78	0x3d0ba3f5	0.03409191
79	0x3d8b23b4	0.06793919
80	0x3df832d7	0.12119072
81	0xbe0fb579	-0.1403407
82	0xbcfa3458	-0.030542538
83	0x3ab2ccd6	0.0013641368
84	0xbdbeae67	-0.09310608
85	0xbde9234b	-0.11383685
86	0xbd008c3f	-0.03138375
87	0xbd5b3e6f	-0.05352634
88	0xbbbed312	-0.0058235014
89	0xbe056802	-0.13027957
90	0xbd308e5e	-0.043104522
91	0xbb987093	-0.004652092
92	0x3d4b29bd	0.04960035
93	0x3db82a01	0.089923866
94	0x3b3b3643	0.0028566278
95	0x3dd8eaed	0.105916835
96	0x3d6e3deb	0.05816452
97	0x3d5fa545	0.054600973
98	0x3d0e3e0a	0.034727134
99	0xbe1a0d5b	-0.15044157
100	0xbe0a2936	-0.13492283
101	0xbe0f41f4	-0.13990003
102	0xbe228850	-0.15872312
103	0xbe1e9119	-0.15485038
104	0xbe5cf752	-0.2157872
105	0x3cc7776a	0.024348933
106	0xbd74f070	-0.05979961
107	0xbdcb85d2	-0.099376336
108	0x3dc84b88	0.097800314
109	0xbdd8cb05	-0.10585598
110	0xbdf7037d	-0.12061212
111	0x3d147b79	0.036250565
112	0xbd081629	-0.03322426
113	0xbd312cd7	-0.043255653
114	0xbdb0fd11	-0.086420186
115	0xbd612ea7	-0.05497613
116	0xbd85b784	-0.065291435
117	0xbd5e5b9c	-0.054286584
118	0xbd55860f	-0.0521298
119	0x3d21fdf2	0.03954882
120	0x3d7ac9aa	0.061227478
121	0xbdd923ba	-0.106025174
122	0xbdb3da1c	-0.087818354
123	0x3d2ec042	0.04266382
124	0xbd64ea29	-0.055887375
125	0xbb9b16fa	-0.0047329636
126	0x3d21d4c3	0.039509546
127	0xbcacd73e	-0.02109873
128	0x3bee415e	0.007270976
129	0x3dd6e08f	0.1049205
130	0x3dcc57a1	0.099776514
131	0xbcfb5ae4	-0.030682988
132	0x3d9d01f1	0.07666386
133	0x3d822831	0.06355322
134	0xbcc41ae3	-0.023938602
135	0x3e0f4b5c	0.13993591
136	0x3dd97660	0.10618281
137	0x3bd03762	0.0063542584
138	0x3de268fa	0.11055179
139	0x3d28a7ac	0.04117553
140	0xbc4564b5	-0.012047936
141	0x3d96f71e	0.073713526
142	0x3d682463	0.056675326
143	0x3dbad371	0.091223605
144	0x3d5960fb	0.053071003
145	0x3d64c91f	0.055855867
146	0x3d69b745	0.057059545
147	0x3ccf7870	0.025325984
148	0x3e01f551	0.12691237
149	0x3e026ad4	0.12736064
150	0x3de09227	0.10965376
151	0x3e235c8e	0.15953276
152	0x3d24bbcd	0.040218163
153	0xbcc6bb89	-0.024259346
154	0x3d5e9ede	0.054350726
155	0xbd336240	-0.04379487
156	0xbdb47c74	-0.088128
157	0xbdeca1f1	-0.11554325
158	0xbdf3f0d8	-0.11911172
159	0xbd64bc38	-0.055843562
160	0x3b462ad1	0.0030237923
161	0xbd6840e4	-0.05670251
162	0x3cbb809e	0.022888478
163	0x3d0c401d	0.03424083
164	0xbe30a661	-0.17250969
165	0xbd921be1	-0.07134224
166	0x3cf54914	0.029942073
167	0xbe25b700	-0.1618309
168	0xbd0e5db3	-0.034757327
169	0xbc3b70af	-0.01144044
170	0xbde2ac5e	-0.11068033
171	0x3e533f4f	0.20629619
172	0x3cc3cb7a	0.023900736
173	0xbde29bd9	-0.11064882
174	0x3d442e41	0.047895674
175	0x3c5121e1	0.012764425
176	0x3d21538b	0.039386313
177	0xba2c33b9	-0.00065689866
178	0x3e04e57f	0.12978171
179	0x3dbff4c4	0.09372857
180	0x3dd3aa36	0.103351995
181	0x3e018b62	0.12650827
182	0x3ddc8280	0.107670784
183	0x3e5ae3f4	0.2137602
184	0x3d9e85a8	0.07740337
185	0x3e15666c	0.14589852
186	0x3db55f89	0.088561125
187	0x3d7354ec	0.05940716
188	0x3ccf387b	0.025295487
189	0x3b83aa28	0.004018087
190	0x3d74bd67	0.05975094
191	0x3d8e2a9f	0.06941723
192	0xbd9246c1	-0.071424015
193	0x3cb8c18b	0.022553226
194	0xbd859949	-0.065233774
195	0x3d2214c7	0.039570596
196	0x3dba48f6	0.090959474
197	0xbd1a152c	-0.037617847
198	0xbb647bdd	-0.0034863867
199	0x3db1fc3a	0.086906865
200	0xbbc4b5a5	-0.006003099
201	0x3d02b231	0.031908218
202	0x3d8c3848	0.06846672
203	0xbcaabff0	-0.020843476
204	0xbab37d37	-0.0013693933
205	0xbd01d606	-0.03169825
206	0x3ddaa633	0.10676231
207	0xbbcd3ae3	-0.0062631234
208	0x3ce5dfb4	0.028060772
209	0x3e5435d1	0.20723654
210	0xbe12391f	-0.14279602
211	0xbdbdaf31	-0.09261931
212	0x3dbf1091	0.09329332
213	0x3c75a959	0.014993989
214	0xbe03d6ac	-0.1287486
215	0xbdb8aee2	-0.09017731
216	0xbca0324f	-0.019555239
217	0xbc610a8f	-0.0137354275
218	0x3da85ae8	0.08220464
219	0x3d5684b1	0.052372638
220	0xbb45ba25	-0.0030170765
221	0x3d2b5db4	0.04183741
222	0xbd6c495d	-0.057687152
223	0xbd9fccba	-0.0780272
224	0xbd46c91c	-0.048531637
225	0x3e4aa967	0.19791184
226	0x3e3d9054	0.18512088
227	0x3d4df49e	0.050282113
228	0x3e4f75e4	0.20259815
229	0x3e44323b	0.19159786
230	0x3df2d83c	0.1185765
231	0x3d8bbb94	0.06822887
232	0x3de484c7	0.11158138
233	0x3df767e1	0.1208036
234	0x3d68c73b	0.056830626
235	0xbd8c21a1	-0.06842352
236	0xbd9a6e7c	-0.075406045
237	0x3df64a27	0.12025862
238	0x3c81213b	0.015762916
239	0xbd1f5ae2	-0.038905032
240	0x3d6f90c1	0.058487657
241	0xbcacaf15	-0.02107958
242	0xbcb9a6e5	-0.02266259
243	0x3d81661b	0.06318303
244	0x3dc202af	0.09473168
245	0x3e34d236	0.17658314
246	0x3cf7c0e1	0.030243339
247	0x3dc79f05	0.097471274
248	0x3e130b90	0.1435988
249	0x3baa70c3	0.0052014305
250	0x3dc6eb1e	0.09712814
251	0x3e435e57	0.19078957
252	0x3c1b6a81	0.009485842
253	0x3d5a32fa	0.05327127
254	0xbd2246da	-0.03961835
255	0x3b8766ba	0.004132119

5.bias f4 [32]
0	0x3d049144	0.0323651
1	0x3ce2db7f	0.027692555
2	0x3d005a2d	0.031336
3	0xbba5aa38	-0.005055692
4	0x3da42b0a	0.080160215
5	0x3d0581f7	0.032594647
6	0xbda336b4	-0.07969418
7	0x3da2b26a	0.07944186
8	0xbd956721	-0.07295061
9	0x3d7a9bf6	0.061183892
10	0x3d8f0d53	0.06984963
11	0xbd4a22fe	-0.049349777
12	0x3d906031	0.07049597
13	0x3dd16738	0.102247655
14	0xbd329da7	-0.04360738
15	0x3d8b8197	0.06811827
16	0x3cf6b8d0	0.030117422
17	0x3dd307b5	0.103042044
18	0xbb62cf2b	-0.0034608345
19	0x3ddf6330	0.109075904
20	0x3d7ea8e8	0.0621728
21	0xbc0b2511	-0.008492724
22	0x3cb01c62	0.021497909
23	0x3caa180c	0.02076342
24	0x39c686d7	0.00037865966
25	0x3dba664a	0.09101541
26	0xbd543621	-0.051809434
27	0x3cd796a6	0.026316952
28	0x3d3a8549	0.045537267
29	0x3c7072a9	0.014675775
30	0xbda26dce	-0.079311
31	0xbd8445d0	-0.06458628

7.weight f4 [5, 32, 1, 1]
0	0x3e56a94f	0.20963024
1	0xbe558394	-0.20850974
2	0x3e55fd8f	0.20897506
3	0xbe22d052	-0.1589978
4	0xbe8a1764	-0.2697097
5	0x3d527444	0.05138041
6	0x3e127ba5	0.14304979
7	0x3e19d543	0.15022759
8	0x3e26e020	0.16296434
9	0x3e866b02	0.26253515
10	0xbe448c60	-0.19194174
11	0x3dfe3c08	0.12413794
12	0xbe06ca43	-0.13163094
13	0xbe05942b	-0.13044803
14	0xbe638acc	-0.22220916
15	0x3e4b5298	0.19855726
16	0xbc2954d1	-0.010335163
17	0xbe6849e9	-0.22684444
18	0x3e98f70c	0.29875982
19	0xbe87990d	-0.26483956
20	0x3e8736ba	0.2640894
21	0x3e4e36d7	0.20138107
22	0x3e87f89c	0.2655686
23	0xbe168661	-0.14699699
24	0xbe4105d8	-0.18849885
25	0xbe316c0e	-0.17326376
26	0x3e4e7084	0.20160109
27	0x3e7d8a86	0.24759874
28	0xbe3cc18d	-0.18433209
29	0x3e3511c1	0.17682554
30	0x3e534663	0.20632319
31	0x3dbd96ea	0.092573
32	0xbe3f14c6	-0.18660268
33	0xbd394212	-0.045229025
34	0x3ce90a1d	0.028447205
35	0x3da079ef	0.07835757
36	0x3de01cf2	0.10943021
37	0x3aac4c73	0.0013145342
38	0xbe1b45dc	-0.15163368
39	0xbe30c773	-0.17263584
40	0x3d5cd07d	0.053909767
41	0xbe0592e5	-0.13044317
42	0xbe19bf01	-0.15014268
43	0xbe2df23b	-0.16986935
44	0x3e40a051	0.18811156
45	0xbda82393	-0.0820991
46	0x3d46d307	0.048541095
47	0x3ca808a8	0.02051194
48	0x3d26648d	0.040623236
49	0xbe2c7d99	-0.16844787
50	0x3e0dfb20	0.13865328
51	0x3df27e85	0.11840538
52	0x3df399ab	0.11894544
53	0x3d3ca82b	0.046058815
54	0x3cae5f68	0.021285728
55	0xbde5b73e	-0.11216591
56	0x3b947d6c	0.004531553
57	0xbe32cea0	-0.17461634
58	0x3ccfd7ea	0.02537151
59	0x3dec3eb7	0.115353994
60	0x3d676225	0.056490082
61	0xbe30d911	-0.17270304
62	0x3e26c593	0.16286306
63	0xbdea2d57	-0.11434429
64	0xbcaf56c0	-0.02140367
65	0xbe3a90f6	-0.1821936
66	0x3e14cb05	0.14530571
67	0x3d37656e	0.044774465
68	0x3d8f2079	0.069886155
69	0xbe1d2b48	-0.15348542
70	0xbda662f5	-0.08124343
71	0xbda4d5ca	-0.080485895
72	0x3dc11653	0.09428086
73	0xbdd9312e	-0.106050834
74	0xb92c0d2b	-0.00016408104
75	0xbe3ae849	-0.18252672
76	0x3e2913fe	0.16511533
77	0x3e05d873	0.1307085
78	0xbdb31767	-0.08744698
79	0xbde36ead	-0.11105094
80	0xbe2cf9be	-0.16892144
81	0xbdaaebe9	-0.083457775
82	0xbdf9433c	-0.12171027
83	0x3e1376b4	0.1440075
84	0x3caf7bb1	0.021421285
85	0xbd143bc0	-0.036189795
86	0xbca72833	-0.02040491
87	0xbe353deb	-0.17699401
88	0xbbc0569b	-0.005869699
89	0xbe4f85b8	-0.20265853
90	0xbd2d7f84	-0.042357937
91	0x3d7f7388	0.06236604
92	0x3dafd3ae	0.085852966
93	0xbe1d3a12	-0.15354183
94	0x3d8290a6	0.06375246
95	0xbe46102d	-0.19342108
96	0xbcc019f0	-0.023449868
97	0xbd823741	-0.06358195
98	0x3cb0b947	0.021572722
99	0xbdff7157	-0.1247279
100	0x3d45d1b9	0.04829571
101	0xbe342ab6	-0.17594418
102	0x3e1f7e53	0.15575533
103	0xbd9fda96	-0.07805364
104	0x3d3ffa50	0.046869576
105	0x3d2533b5	0.040332515
106	0xbdea92fb	-0.114538155
107	0xbdfc65a8	-0.12324077
108	0x3d6a2ec1	0.057173494
109	0x3df72ad5	0.120687164
110	0xbc82e722	-0.015979353
111	0xbdbdc13a	-0.09265371
112	0xbe259de6	-0.16173515
113	0x3c748212	0.014923589
114	0x3e1c9d87	0.15294467
115	0xbe415694	-0.18880683
116	0xbd48d2b9	-0.049029086
117	0xbe1942ae	-0.14966843
118	0xbe1211ce	-0.14264604
119	0x3dedb3dc	0.11606571
120	0x3d84f9f7	0.064929895
121	0x3e3dff8c	0.18554515
122	0x3d0f27f0	0.034950197
123	0xbe47baa6	-0.19504794
124	0xbe29d777	-0.165861
125	0xbd8dee83	-0.06930258
126	0xbc2d0fba	-0.010562832
127	0x3bcc5de3	0.006236778
128	0x3cbaa935	0.022785762
129	0xbd815afa	-0.063161805
130	0xbe211f3d	-0.15734573
131	0x3de6922f	0.11258351
132	0x3d170e94	0.036879137
133	0xbe139a7c	-0.144144
134	0x3e5a8c6d	0.2134263
135	0x3dd495bd	0.10380123
136	0x3df8ea52	0.12154068
137	0x3dc4d913	0.09611716
138	0x3d883bf9	0.06652064
139	0xbd32ec23	-0.04368223
140	0x3de54ce6	0.11196308
141	0x3de4b32b	0.11166986
142	0xbe3e0a65	-0.18558653
143	0xbe010690	-0.1260016
144	0xbc1f5355	-0.009724458
145	0x3d0b0c8c	0.033947513
146	0x3d0a956a	0.0338339
147	0xbcb382c0	-0.021912932
148	0x3d65cd49	0.05610398
149	0x3c201014	0.009769458
150	0xbcc5717f	-0.02410197
151	0x3c486e6a	0.012233356
152	0x3dd9b4f9	0.10630221
153	0xbdfb9462	-0.12284161
154	0x3e21c1ba	0.15796557
155	0xbe1a75a0	-0.15083933
156	0xbe0fe2b4	-0.14051324
157	0xbe353955	-0.17697652
158	0xbd25e088	-0.040497333
159	0xbe3821e3	-0.17981677

7.bias f4 [5]
0	0x3d3c5590	0.045980036
1	0x3e1d5077	0.15362726
2	0xbdc427b6	-0.09577887
3	0x3ce6011c	0.0280767
4	0xbdd7399d	-0.10509036
