MTCNN02/rnet.pt (torch_old, 401359 bytes, 10 tensors)

input_layer.0.weight f4 [28, 3, 3, 3]
0	0x3da9f93e	0.08299492
1	0xbd9d9575	-0.07694522
2	0x3d805ae6	0.062673375
3	0xbdfae7a1	-0.12251211
4	0xbdd662de	-0.10468076
5	0xbe38a89f	-0.18033074
6	0xbcf38eed	-0.029731238
7	0x3deb571a	0.11491223
8	0xbde2d27c	-0.11075303
9	0x3e00c9d4	0.12576991
10	0x3e0e2354	0.13880664
11	0x3e39bdd0	0.18138814
12	0x3deef8f7	0.1166858
13	0xbe7217d5	-0.23641904
14	0xbe7d452c	-0.24733418
15	0x3d0efbe6	0.034908198
16	0x3cb7c473	0.022432541
17	0xbd26da69	-0.040735636
18	0x3d896fa7	0.06710749
19	0x3e27809e	0.16357657
20	0x3db25535	0.08707658
21	0x3dcc2241	0.09967471
22	0x3cbd7845	0.023128638
23	0xbe8ae9c7	-0.27131483
24	0x3e2d2783	0.16909604
25	0x3db249c0	0.08705473
26	0x3e74762f	0.23873208
27	0x3e599aad	0.2125041
28	0xbe0a09f6	-0.13480362
29	0xbcb1368c	-0.021632455
30	0x3d6854fd	0.056721676
31	0x3e079fe9	0.13244595
32	0xbe78ca27	-0.24295865
33	0x3e25763b	0.16158383
34	0xbde6d137	-0.11270373
35	0x3e00e6fe	0.12588117
36	0x3e1327a6	0.14370593
37	0xbe514f1a	-0.20440331
38	0xbb89f335	-0.0042099007
39	0x3e7f4c39	0.2493142
40	0xbdc80cf9	-0.09768099
41	0xbdc7e1d3	-0.097598694
42	0x3e330b70	0.17484832
43	0xbe0f1754	-0.13973743
44	0xbc2bc6ca	-0.010484407
45	0x3e0ef9d9	0.13962497
46	0xbe7039a5	-0.2345949
47	0xbe805354	-0.25063574
48	0x3e6620c8	0.22473443
49	0x3cc9d697	0.024638457
50	0xbe83c912	-0.25739342
51	0x3e3e9f04	0.18615347
52	0x3bf79a7d	0.0075562582
53	0xbdb95957	-0.09050243
54	0xbd5163d6	-0.0511206
55	0x3d7c9161	0.06166208
56	0x3d91d4c8	0.07120663
57	0x3e233d4f	0.15941356
58	0xbd83fbda	-0.06444521
59	0xbe27244b	-0.16322438
60	0xbced0867	-0.02893467
61	0xbc2ed7eb	-0.010671596
62	0x3e08b686	0.13350877
63	0xbc2acabb	-0.010424311
64	0x3dc1f67b	0.094708405
65	0x3da416fc	0.080121964
66	0x3dfccc29	0.12343628
67	0xbd3d971f	-0.0462867
68	0xbc553f39	-0.013015562
69	0x3e0cce4f	0.13750575
70	0x3e0b9e9a	0.1363472
71	0x3dddb350	0.10825217
72	0xbdb59bb8	-0.088675916
73	0xbe57df04	-0.21081167
74	0xbe2211a5	-0.15827043
75	0xbe13d48e	-0.14436552
76	0xbe1b8071	-0.15185715
77	0xbe06df4a	-0.13171116
78	0x3e381988	0.1797849
79	0x3de37912	0.11107077
80	0x3deb1f43	0.11480572
81	0xbdab843f	-0.08374833
82	0xbd17b457	-0.03703722
83	0x3afda732	0.0019352196
84	0xbd7d959d	-0.06191026
85	0xbd833eb2	-0.064084426
86	0x3d9553b4	0.07291356
87	0x3e0eee6f	0.13958143
88	0x3e789c67	0.24278413
89	0x3e81144f	0.25210807
90	0xbe4a119f	-0.19733284
91	0x3d5bafb0	0.053634346
92	0x3bfe1301	0.0077537303
93	0x3c55ada9	0.013041892
94	0xbe43da84	-0.19126326
95	0xbe42da9e	-0.19028708
96	0x3d5a6555	0.053319294
97	0xbe073c83	-0.13206677
98	0x3dbeee63	0.093228124
99	0x3c88f12f	0.016716568
100	0x3df0d2b1	0.11758936
101	0x3dcaebd3	0.09908261
102	0xbe52781c	-0.2055363
103	0xbd63ba7d	-0.05559777
104	0xbd19a0da	-0.037506916
105	0xbd83f7b3	-0.06443729
106	0xbde5bd3b	-0.112177335
107	0xbd51992d	-0.05117147
108	0xbd16b77f	-0.03679609
109	0xbc0bc7d9	-0.008531534
110	0xbe0fb130	-0.14032435
111	0x3e2539e2	0.16135362
112	0x3daec4a6	0.085336015
113	0xbd8c365a	-0.06846304
114	0x3d932912	0.07185568
115	0xbd945f3a	-0.072447255
116	0xbcf4a1af	-0.029862253
117	0x3e0c172b	0.13680713
118	0x3e36f5d8	0.1786722
119	0xbdffe3e3	-0.12494638
120	0x3e2856c1	0.16439344
121	0x3da3b241	0.079929836
122	0xbe78483c	-0.24246305
123	0x3df06de9	0.11739714
124	0x3e3f8285	0.18702133
125	0xbe61877d	-0.22024341
126	0xbd265dcc	-0.040616795
127	0xbd7fab53	-0.062419247
128	0x3ca8c143	0.020599967
129	0xbd426f77	-0.047469582
130	0xbca149b5	-0.019688467
131	0x3d7f8c62	0.06238974
132	0x3d8c6062	0.06854321
133	0xbe23d953	-0.16000871
134	0xbd4901cf	-0.04907399
135	0x3e10618b	0.1409971
136	0xbd13184a	-0.035911836
137	0x3e10b7e9	0.14132656
138	0xbe69844f	-0.22804378
139	0xbe047a26	-0.12937221
140	0xbdecace8	-0.11556417
141	0x3dfb9ab3	0.12285366
142	0x3ce1ba7c	0.027554743
143	0xbd94f0ea	-0.07272513
144	0xbd82d745	-0.06388716
145	0x3dc945b0	0.09827745
146	0x3e5131af	0.20429109
147	0xbd14223b	-0.036165457
148	0xbe0289b9	-0.1274785
149	0xbe43ae41	-0.19109441
150	0x3e2905b7	0.16506086
151	0x3e340486	0.1757985
152	0xbdc3fbfc	-0.095695466
153	0xbdebd8c1	-0.11515952
154	0x3dae761b	0.085186206
155	0x3d8c93ef	0.068641536
156	0x3d54592a	0.051842846
157	0xbd25bc6a	-0.04046289
158	0x3daa48e8	0.08314687
159	0x3b2c9323	0.0026332818
160	0xbd707d93	-0.058713507
161	0x3cfd301d	0.030906731
162	0xbe3e6e93	-0.18596868
163	0x3d7cb9af	0.06170052
164	0x3e32aef9	0.1744956
165	0x3e272e5d	0.1632628
166	0xbc64dfee	-0.013969405
167	0xbdf7cc3b	-0.12099501
168	0x3d60c938	0.054879397
169	0x3dfd3705	0.1236401
170	0xbddbd3dc	-0.10733768
171	0xbe21cedd	-0.15801568
172	0xbe38fb3a	-0.18064585
173	0x3e3e62dd	0.18592401
174	0x3dd66f69	0.104704686
175	0xbddb9c79	-0.10723204
176	0x3daace4e	0.08340131
177	0x3e377af4	0.17917997
178	0xbe0a2142	-0.1348925
179	0xbc190fe2	-0.009342166
180	0x3e158e2f	0.1460502
181	0xbe239e89	-0.15978445
182	0xbd14cd18	-0.036328405
183	0x3da76a36	0.08174555
184	0xbe1ac4cd	-0.15114136
185	0x3e042379	0.12904157
186	0x3cde2175	0.027115563
187	0xbe53d7ca	-0.20687786
188	0x3dc778a9	0.09739811
189	0xbc692e61	-0.014232249
190	0xbe6f4f97	-0.23370205
191	0xbdf7e7c0	-0.1210475
192	0x3e0086a9	0.12551369
193	0x3e0b6a65	0.13614805
194	0x3dcb283a	0.09919782
195	0x3e04a707	0.12954341
196	0x3e3b06b1	0.18264271
197	0xbe0dacb5	-0.13835414
198	0xbd337e15	-0.043821413
199	0xbe8035fe	-0.25041193
200	0xbd29192b	-0.041283768
201	0x3cea2176	0.028580409
202	0x3d6f6739	0.05844805
203	0x3e669cb8	0.22520721
204	0x3dc2665b	0.09492179
205	0x3da811cc	0.082065195
206	0xbd956365	-0.072943486
207	0xbe60fb45	-0.21970852
208	0xbe0a39e5	-0.13498648
209	0xbd96460d	-0.0733758
210	0xbda3d3b8	-0.079993665
211	0xbd89fb5c	-0.06737396
212	0xbd8e6f36	-0.069548056
213	0xbd1d7059	-0.03843722
214	0x3e14193c	0.14462751
215	0x3e39082b	0.18069522
216	0x3b231ee9	0.002489025
217	0x3e1d62b7	0.15369688
218	0xbe17cfd6	-0.14825377
219	0xbda794f9	-0.08182711
220	0x3d91fe38	0.071285665
221	0xbdf9efc7	-0.12203937
222	0xbd3649a7	-0.044503834
223	0x3e405afa	0.18784705
224	0x3e24c815	0.1609195
225	0xbe39cc98	-0.18144453
226	0x3d35137f	0.044208046
227	0xbe580fb3	-0.21099739
228	0xbd28224f	-0.041048344
229	0xbdef6f8d	-0.116911985
230	0x3d223a13	0.039606165
231	0x3c8ca4f3	0.017168498
232	0x3e2e19eb	0.17002074
233	0x3e52bdba	0.20580187
234	0x3d12b0f9	0.035813306
235	0xbd97a0f2	-0.07403745
236	0xbd34fe33	-0.044187736
237	0x3d434fc5	0.047683496
238	0xbd9099d0	-0.070605874
239	0xbd0d267b	-0.034460526
240	0x3e4b660c	0.19863147
241	0xbbeb25f7	-0.0071761566
242	0x3e15b4ec	0.14619797
243	0xbe2204d3	-0.15822153
244	0xbde80982	-0.113299385
245	0x3e008e3d	0.1255426
246	0x3e3ab193	0.18231802
247	0x3cc4ff4a	0.024047513
248	0x3e407690	0.18795228
249	0xbe15f462	-0.14644006
250	0xbe3cc937	-0.18436132
251	0xbce0019a	-0.027344514
252	0x3db14156	0.0865504
253	0x37b3e7e7	2.144645e-05
254	0x3e5fecd7	0.21867691
255	0xbded24a4	-0.11579254

input_layer.0.bias f4 [28]
0	0xbd5b0254	-0.053469017
1	0xbc8acec0	-0.01694429
2	0xbd34f1b5	-0.044175822
3	0xbdf00d52	-0.11721291
4	0x3d11a0f4	0.035553887
5	0xbc94265d	-0.0180847
6	0xbda4da4c	-0.08049449
7	0x3c21dcf9	0.009879344
8	0xbe21c5a5	-0.15798052
9	0xbd230aef	-0.03980535
10	0x3deb9da1	0.11504675
11	0xbe2cc4ef	-0.16871999
12	0xbd0c4319	-0.034243677
13	0xbda4254b	-0.080149256
14	0x3ce07172	0.027397845
15	0x3d5ba142	0.053620584
16	0xbd1bd3b2	-0.038043685
17	0x3dc8edb0	0.0981096
18	0x3c9c06fe	0.019046303
19	0xbdd79483	-0.10526373
20	0xbda4b85d	-0.08042977
21	0xbdd1a695	-0.10236851
22	0x3d174725	0.036933083
23	0xbe1e2769	-0.15444721
24	0x3ced17dc	0.028942041
25	0x3a94717f	0.0011325328
26	0x3d5a7d9e	0.053342454
27	0xbd04540f	-0.032306727

input_layer.3.weight f4 [48, 28, 3, 3]
0	0xbde276f6	-0.11057846
1	0xbe05c5e0	-0.13063765
2	0xbdedf0fc	-0.1161823
3	0xbd401d74	-0.04690309
4	0xbd9c47bc	-0.0763087
5	0xbe374a7f	-0.17899512
6	0x3e0dba8f	0.13840698
7	0xbdb49a6b	-0.088185154
8	0xbd086bae	-0.033305816
9	0xbcc7b839	-0.024379836
10	0xbc81ffc5	-0.01586903
11	0xbd91b96f	-0.07115447
12	0xbd591f0b	-0.05300812
13	0x3ce396ac	0.027781807
14	0xbcba60ed	-0.022751296
15	0x3d550f16	0.05201634
16	0x3d059e19	0.032621477
17	0x3d07df60	0.03317201
18	0x3a0922ad	0.00052313023
19	0x3d9afc90	0.07567704
20	0x3d68f88c	0.056877658
21	0x3d187803	0.037223827
22	0x3d13e0f1	0.036103193
23	0x3d90e03f	0.070740215
24	0x3dc1fa68	0.09471589
25	0x3d9c5519	0.076334186
26	0xbbed8007	-0.007247928
27	0xbcb83b6b	-0.02248927
28	0x3d51760a	0.05113796
29	0xbd5e3dbd	-0.054258097
30	0xbc32ba75	-0.010908713
31	0xbd86e554	-0.065867096
32	0x3d4f120c	0.05055432
33	0xbd48ea83	-0.049051773
34	0xbd8bb67b	-0.06821915
35	0xbdb0d04e	-0.08633481
36	0x3cc3edfa	0.023917187
37	0x3ce76020	0.028244078
38	0x3b9bf461	0.004759357
39	0xbd61013b	-0.054932814
40	0x3c20fa0d	0.009825242
41	0x3d6e0199	0.058106992
42	0x3b7d8b0c	0.0038687615
43	0xbd47a976	-0.048745595
44	0x3b822bca	0.003972505
45	0xbbe4cf2a	-0.0069827037
46	0xbd239e75	-0.03994604
47	0xbc98c405	-0.018648157
48	0x3cb0e69e	0.021594342
49	0xbca0de5d	-0.019637281
50	0xbd6642a7	-0.05621591
51	0xbc44feb9	-0.012023621
52	0x3d0f79db	0.03502832
53	0x3c468e07	0.012118823
54	0xbd6b9641	-0.05751634
55	0x3d499029	0.049209747
56	0xbd27d80b	-0.04097752
57	0x3d6c59e4	0.057702914
58	0x3d890a17	0.066913776
59	0xbbf6fad9	-0.0075372276
60	0x3db40255	0.08789507
61	0x3bad1388	0.0052818693
62	0x3cfc8010	0.030822784
63	0x3c403c58	0.011733137
64	0x3dd05b22	0.10173632
65	0x3db5ff4d	0.088865854
66	0x3d7a47b1	0.061103527
67	0x3c77e7fd	0.015130994
68	0x3d5011fb	0.050798398
69	0x3d918e24	0.07107189
70	0xbd258cd2	-0.0404175
71	0x3cd76752	0.026294384
72	0x3d4e6bd0	0.050395787
73	0x3bece731	0.0072297086
74	0x3db5c020	0.088745356
75	0x3d56a3ca	0.052402295
76	0x3dbe6381	0.092963226
77	0x3c9e7001	0.019340517
78	0x3bf042ff	0.0073322053
79	0x3cb953c7	0.022622956
80	0xbc842ce6	-0.01613469
81	0xbd5e8b6e	-0.05433219
82	0x3cabd772	0.020976756
83	0xbd15f3d7	-0.036609497
84	0xbb96acc4	-0.004598232
85	0xbb93f24f	-0.0045149694
86	0x3d13ca12	0.03608138
87	0xbdab9995	-0.08378903
88	0xbd921473	-0.07132807
89	0xbd89cca5	-0.06728486
90	0x3d1e0eb9	0.03858826
91	0xbb79cd5a	-0.0038116784
92	0xbd168841	-0.036751036
93	0x3d63f800	0.055656433
94	0xbd6687b1	-0.05628175
95	0x3d43ad47	0.047772672
96	0xbc2162e9	-0.009850242
97	0xbd3cc71a	-0.046088316
98	0x3c927d9b	0.017882159
99	0x3d03e472	0.032200284
100	0xbb8613be	-0.004091709
101	0x3d7acd43	0.06123091
102	0x3d3054aa	0.043049492
103	0x3dd3df56	0.10345332
104	0x3bbf89d0	0.005845286
105	0x3d3c9ec2	0.04604984
106	0x3cadcd6c	0.021216117
107	0x3d871543	0.06595852
108	0xbcfdfd43	-0.031004554
109	0x3d15d9d8	0.036584705
110	0x3ccaaa2b	0.024739346
111	0x3cf5203e	0.0299226
112	0xbd883673	-0.0665101
113	0xbcd14e97	-0.02555017
114	0xbd8a79df	-0.06761526
115	0xbd22957e	-0.039693348
116	0xbce46fc5	-0.027885327
117	0xbd94b2c5	-0.0726066
118	0xbddb0aae	-0.10695396
119	0x3d43da76	0.047815762
120	0xbd453dd9	-0.048154686
121	0xbc6c858f	-0.01443614
122	0x3d1150f2	0.035477586
123	0xbd5f8d3e	-0.05457806
124	0xbd411b48	-0.047145158
125	0xbd0a5546	-0.03377273
126	0xbd1054de	-0.035237186
127	0xbdb5fc29	-0.08885986
128	0xbd806476	-0.062691614
129	0xbc12ffae	-0.008972092
130	0x3b7f6022	0.0038967212
131	0xbd3253e8	-0.04353705
132	0xbd6d4c67	-0.05793419
133	0xbd7fdc33	-0.062465858
134	0xbdb01f61	-0.08599735
135	0xbe39b9dc	-0.18137306
136	0xbcbd0313	-0.023072755
137	0xbdf0b2b6	-0.117528364
138	0xbe39c91e	-0.18143126
139	0xbe0d5e38	-0.13805473
140	0xbdf018df	-0.11723494
141	0xbe4913f8	-0.19636524
142	0xbe127f4e	-0.14306375
143	0xbca2456f	-0.0198085
144	0xbc1b07ed	-0.009462339
145	0x3d0fb28b	0.03508238
146	0x3d531270	0.051531255
147	0x3d761cef	0.060086187
148	0x3c2b2b6b	0.010447363
149	0xbc8fb3b5	-0.017541746
150	0x3c0c63e4	0.008568738
151	0xbc908267	-0.017640306
152	0xbd0f115f	-0.034928676
153	0xbe3c9d78	-0.18419445
154	0xbe2efa5b	-0.1708769
155	0xbcf2baa8	-0.02963002
156	0xbe3e3558	-0.18575037
157	0xbdde74d5	-0.10862128
158	0xbdceb7c3	-0.100936435
159	0xbe2e6bb5	-0.17033274
160	0xbe1d4d5c	-0.15361542
161	0xbd8f4824	-0.069961816
162	0x3d426394	0.047458246
163	0x3ca4a783	0.020099407
164	0x3d0b981d	0.034080613
165	0xbc96795d	-0.018368417
166	0xbccd7bb7	-0.025083406
167	0x3cbb88da	0.022892404
168	0xbd74d696	-0.059774958
169	0xbade2af4	-0.0016950057
170	0xbbdc984a	-0.0067320215
171	0x3c6e3f6e	0.01454149
172	0xbd607999	-0.054803465
173	0x3db6bb4d	0.089224435
174	0x3d37231d	0.04471122
175	0xbce8b8ed	-0.028408492
176	0x3d600fbc	0.054702505
177	0xbbce170f	-0.00628937
178	0x3cb43abd	0.022000665
179	0xbd3a467b	-0.04547737
180	0xbd70366a	-0.058645643
181	0xbce17b8c	-0.027524732
182	0xbd47c049	-0.04876736
183	0xbc311d45	-0.010810201
184	0xbd744740	-0.05963826
185	0xbd87bd4f	-0.066279046
186	0x3cf662c4	0.030076392
187	0x3c3b774b	0.011442016
188	0xbd95da97	-0.07317083
189	0xbc0eaa2f	-0.008707567
190	0xbd333693	-0.043753218
191	0x3b7d3da0	0.0038641468
192	0xbc8b3dc8	-0.016997233
193	0xbdce62c2	-0.1007743
194	0x3b301bec	0.0026872111
195	0xbd83c684	-0.06434348
196	0xbdbfc8b5	-0.09364454
197	0x3c5fb715	0.01365449
198	0x3c685bce	0.014182044
199	0x3ca919fc	0.020642273
200	0xbd48667e	-0.04892587
201	0xbc0e8ce7	-0.008700586
202	0xbd099b27	-0.03359523
203	0xbda837f5	-0.08213798
204	0x3d57b4a1	0.052662496
205	0x3d94ea7a	0.07271285
206	0x3cb79c11	0.022413285
207	0x3d3c32a5	0.045946736
208	0xbcede10b	-0.029037973
209	0x3d73dc4e	0.05953627
210	0xbbb44a69	-0.0055020344
211	0xbd9b3fcd	-0.075805284
212	0xbc9d85ff	-0.019228933
213	0xbcbfae61	-0.02339858
214	0x3c3801f4	0.011230934
215	0xbc4fa5ae	-0.012673778
216	0xbc9d83e9	-0.019227939
217	0x3d0c01cc	0.0341814
218	0xbd5518e2	-0.052025683
219	0xbcdce695	-0.026965419
220	0xbde32e3c	-0.11092803
221	0xbc68a3e9	-0.0141992355
222	0xbcfcdec0	-0.030867934
223	0xbd81d7db	-0.06339999
224	0xbc8efbc7	-0.017454041
225	0xbbe09926	-0.006854194
226	0xbdb48566	-0.08814506
227	0xbd62ff02	-0.055418976
228	0x3d86a0b6	0.06573622
229	0xbd4386de	-0.04773604
230	0x3d3f5520	0.04671204
231	0x3c52fae1	0.012877197
232	0xbdb32aba	-0.08748384
233	0xbda361c5	-0.079776324
234	0xbded3256	-0.115818664
235	0xbdcbff2f	-0.09960782
236	0xbcfd4f46	-0.03092159
237	0xbd9ed4c8	-0.077554286
238	0xbe01676a	-0.12637106
239	0xbdff2052	-0.124573365
240	0xbde21546	-0.11039214
241	0xbcdad64d	-0.026713515
242	0xbd278e20	-0.040907025
243	0x3d4bdf2b	0.049773376
244	0x3dad1aae	0.08452354
245	0x3cb4e0ae	0.022079792
246	0x3ca24300	0.019807339
247	0x3bf4a44a	0.007465874
248	0xbbb288a6	-0.0054484187
249	0xbc86fb23	-0.016477173
250	0x3d5ea401	0.054355625
251	0x3c93ef06	0.018058311
252	0x3d0dab2c	0.03458707
253	0xbea94a79	-0.3306463
254	0xbd111d8d	-0.035428572
255	0xbe91a414	-0.28445494

input_layer.3.bias f4 [48]
0	0x3d078237	0.033083167
1	0x3ccc0c7e	0.0249083
2	0x3c8574a6	0.016290974
3	0x3d275b5b	0.040858608
4	0xbd2b503b	-0.04182456
5	0xbd89b6aa	-0.067242935
6	0xbd34ed1c	-0.044171438
7	0x3d4966c8	0.049170285
8	0x3d1dd0ba	0.038529135
9	0x3c857874	0.016292788
10	0xbca1f298	-0.019768998
11	0xbc07238b	-0.00824822
12	0x3c63d6d1	0.013906197
13	0x3cca5c87	0.024702324
14	0x3cfe10d8	0.031013891
15	0xbd24596c	-0.04012434
16	0xbb28f849	-0.0025782755
17	0xbd0ec518	-0.034855932
18	0x3d10d63e	0.035360567
19	0x3aa45630	0.0012537893
20	0x3d93aa75	0.072102465
21	0xbc290101	-0.010315181
22	0xbd744801	-0.05963898
23	0x3d06c644	0.032903925
24	0x3cb1d7f2	0.021709416
25	0xbd307441	-0.04307962
26	0xba8bb74c	-0.0010659485
27	0x3cb794d1	0.022409828
28	0x3cac8804	0.021060951
29	0x3dbdb24b	0.09262522
30	0x3c13efc1	0.00902933
31	0xbcd143fc	-0.025545113
32	0xbcb37392	-0.021905694
33	0xbae38651	-0.0017358755
34	0x3bfcbe2d	0.0077131004
35	0x3ca10829	0.019657211
36	0x3d0e16c0	0.034689665
37	0xbda9fe25	-0.08300427
38	0x3da82b5b	0.082113944
39	0x3d053fcd	0.03253155
40	0x3c5a9bb9	0.013342791
41	0x3ca10f44	0.0196606
42	0xbd02b9fb	-0.031915646
43	0xbc425bfc	-0.011862751
44	0x3de83f51	0.11340202
45	0x3c884983	0.016636616
46	0x3c7dafad	0.015483779
47	0x3ac69e0f	0.0015153306

input_layer.6.weight f4 [64, 48, 2, 2]
0	0xbcb935b2	-0.022608612
1	0xbd75a71a	-0.059973814
2	0x3dfa9e60	0.12237239
3	0x3c5f9884	0.013647202
4	0xbd94193f	-0.07231378
5	0xbd54df83	-0.05197097
6	0xbb8e73a2	-0.0043472806
7	0xbdba3bc5	-0.090934314
8	0xb9cd8d6c	-0.00039206014
9	0x3dab97a2	0.08378531
10	0xbbe0501a	-0.0068454864
11	0x3d0541c1	0.03253341
12	0x3e2d1058	0.16900766
13	0x3d8b3f26	0.06799154
14	0x3e29ec19	0.1659397
15	0x3d408508	0.04700187
16	0x3c93f8ad	0.018062914
17	0xbd1a528c	-0.03767638
18	0xbd91260b	-0.07087334
19	0xbda5b6c3	-0.080915
20	0xbaf21727	-0.0018470035
21	0xbd8ae46b	-0.067818485
22	0x3db8ca73	0.09022989
23	0xbb362581	-0.002779335
24	0xbdd8261e	-0.10554145
25	0xbe1a874b	-0.15090673
26	0x3d9cb661	0.076519735
27	0xbd2b9d58	-0.0418981
28	0x3e260ac7	0.16215049
29	0x3e46e8c8	0.19424736
30	0x3dc213b6	0.09476416
31	0xbd1b7312	-0.037951536
32	0xbd985294	-0.074376255
33	0x3d3b0d07	0.04566672
34	0xbda0da3f	-0.07854127
35	0x3d5c058a	0.05371622
36	0xbd6c73cb	-0.057727616
37	0xbdae5a1b	-0.0851328
38	0xbdd21a11	-0.10258878
39	0xbd9938a4	-0.074815065
40	0xbd1b6391	-0.03793675
41	0x3cd19665	0.025584409
42	0xbb55cad4	-0.0032622116
43	0xbdd0c716	-0.10194223
44	0xbda141f0	-0.07873905
45	0x3cd729bd	0.02626502
46	0xbc86ba17	-0.016446156
47	0x3d2f1a21	0.042749528
48	0xbd33c260	-0.043886542
49	0xbd5e9b01	-0.054347042
50	0x3ceb10f3	0.028694605
51	0xbd668f5f	-0.056289073
52	0xbda36891	-0.07978929
53	0x3d070aa1	0.03296912
54	0x3cc214d7	0.023691578
55	0x3d104bb4	0.035228446
56	0x3e41866c	0.18898934
57	0x3e0287bc	0.12747091
58	0xbe0e9b10	-0.13926339
59	0x3c66caa3	0.014086398
60	0xbd90c4f8	-0.07068819
61	0xbd89ac1a	-0.06722279
62	0xbd456d61	-0.048200015
63	0xbd68dbc9	-0.05685023
64	0xbc39ac5b	-0.011332597
65	0xbd092e3d	-0.033491362
66	0x3d43fbf5	0.047847707
67	0xbd92dfa0	-0.07171559
68	0xbdbb8954	-0.09157053
69	0xbd5b3db3	-0.053525638
70	0x3c92d69d	0.017924601
71	0xbcaae663	-0.02086181
72	0x3ddfadce	0.109218225
73	0x3d812ab2	0.063069716
74	0x3dbdf77a	0.09275718
75	0x3d7be931	0.061501686
76	0xbc86088f	-0.016361503
77	0x3af8def5	0.0018987345
78	0xbd875ff9	-0.06610102
79	0x3d951d4d	0.07280979
80	0x3ce4939b	0.027902415
81	0xbd494189	-0.049134765
82	0xbd147028	-0.036239773
83	0x3c97c263	0.018525308
84	0xbc7553e6	-0.014973616
85	0xbca5e8f7	-0.020252688
86	0xbd828ebe	-0.06374882
87	0x3c0d1e7e	0.008613227
88	0x3cc5cde0	0.02414602
89	0xbd031d89	-0.03201059
90	0x3d4d9b9b	0.050197225
91	0x3d9b6bf6	0.07588951
92	0xbddb2fb5	-0.10702459
93	0xbdf34a86	-0.118794486
94	0x39df4bb6	0.00042590284
95	0xbdc8921f	-0.097934954
96	0x3de1d84b	0.11027583
97	0xbc4402ed	-0.011963588
98	0x3c45d977	0.012075773
99	0x3de3d25a	0.11124106
100	0xbdbfa3e8	-0.093574345
101	0xba95acc5	-0.0011419287
102	0xbd15a615	-0.03653534
103	0x3c8f0793	0.017459666
104	0xbd685e38	-0.05673048
105	0x3c439329	0.011936941
106	0x3c0d44e5	0.008622383
107	0x3cada43c	0.021196477
108	0xbcff38a7	-0.031154944
109	0x3da8154a	0.082071856
110	0x3d57dc57	0.052700367
111	0xbada300b	-0.0016646398
112	0x3d0f8196	0.035035692
113	0xbc465645	-0.012105529
114	0xbcfe7e84	-0.031066187
115	0xbdd8847d	-0.10572145
116	0xbd42068a	-0.047369517
117	0xbd99ac48	-0.07503563
118	0xbd370b84	-0.044688717
119	0x3db21239	0.08694882
120	0xbaa29886	-0.0012405075
121	0x3ad186b0	0.0015985575
122	0x3d08f028	0.033432156
123	0x3c743b3c	0.014906701
124	0x3c824733	0.015903091
125	0x3d46b682	0.048513897
126	0xbe21047c	-0.15724367
127	0xbcb75c4e	-0.022382881
128	0xbdd63e8a	-0.10461147
129	0xbde4ec59	-0.11177892
130	0xbdf27d8d	-0.11840353
131	0xbdb15e30	-0.08660543
132	0xbac02437	-0.001465923
133	0xbb349510	-0.0027554668
134	0x3d99fb66	0.075186536
135	0x3e417aa0	0.18894434
136	0x3c2777ed	0.010221464
137	0xbdbabe30	-0.09118307
138	0x3dad44b5	0.084603705
139	0xbcd13e8b	-0.025542518
140	0x3e129c4f	0.1431744
141	0x3d2e53c4	0.042560354
142	0xbd645860	-0.055748343
143	0xbd3836be	-0.04497408
144	0xbdbc37a9	-0.09190304
145	0xbe0db151	-0.13837172
146	0x3d1ee55b	0.03879295
147	0xbdd0a699	-0.10188026
148	0xbe24b6c5	-0.16085346
149	0xbc668cb6	-0.014071634
150	0x3be05a07	0.0068466696
151	0x3d1fa1fb	0.038972836
152	0xbdb4ba63	-0.08824613
153	0xbd9c9b8c	-0.07646856
154	0x3d02f28e	0.0319696
155	0xbce6139a	-0.028085519
156	0xbd935e22	-0.07195689
157	0x3d3ea4d8	0.046543926
158	0xbd445a93	-0.04793794
159	0x3d62a9de	0.05533778
160	0x3db75c28	0.08953124
161	0xbba06c4a	-0.0048957216
162	0x3df48420	0.11939263
163	0x3e2ce291	0.16883303
164	0x3d90eb8c	0.07076177
165	0xbd0a7749	-0.033805165
166	0x3d4623a7	0.048373844
167	0x3d38d9b5	0.045129497
168	0xbd9d6fd1	-0.07687343
169	0xbc0a454f	-0.008439376
170	0xbda66694	-0.08125034
171	0x3d501481	0.050800804
172	0xbd6d18a7	-0.05788484
173	0xbb9301ca	-0.0044862973
174	0x3da1d885	0.07902626
175	0x3e07712b	0.13226764
176	0x3df18169	0.11792261
177	0x3d736faa	0.059432663
178	0xbd8d67b6	-0.06904547
179	0xbd20537d	-0.03914212
180	0x3d87f368	0.06638223
181	0x3db3eb93	0.087851666
182	0xbd9aa2b2	-0.07550563
183	0x3dd54d47	0.1041513
184	0x3cadbbdd	0.021207744
185	0xbc672723	-0.014108452
186	0x385b04ce	5.2218144e-05
187	0x3d9e6fdd	0.0773618
188	0xbd7d22b0	-0.06180066
189	0x398319f7	0.00025005612
190	0xbd62be1d	-0.055357087
191	0x3b83ae42	0.004018576
192	0x3d09eea8	0.033674866
193	0xbd0b3937	-0.03399011
194	0x3d503578	0.05083224
195	0x3da2a567	0.07941704
196	0x3e1c659e	0.15273139
197	0x3da6846f	0.081307285
198	0x3da1ee5d	0.07906792
199	0x3d9f96a3	0.077924035
200	0xbd0c7a19	-0.03429613
201	0xbd6d551d	-0.0579425
202	0x3db147a2	0.08656241
203	0x3b80973b	0.003924278
204	0x3d99796c	0.074938625
205	0x3d8e5d96	0.06951444
206	0x3d33e5fd	0.043920506
207	0xbb0cd1fe	-0.002148747
208	0xbd91cf17	-0.071195774
209	0x3dfa8bb3	0.12233677
210	0x3e2ab449	0.16670336
211	0xbb105aa1	-0.0022026675
212	0x3d1ac086	0.03778126
213	0x3df39a1f	0.11894631
214	0xbdbc4b7d	-0.09194086
215	0xbd3e0add	-0.04639708
216	0x3e6ec5ad	0.23317595
217	0x3e0c7535	0.13716586
218	0x3da6dcde	0.08147596
219	0x3e1b300c	0.15155047
220	0x3d3d8b3d	0.046275366
221	0x3dad0e8e	0.08450042
222	0xbe2b9b6b	-0.16758506
223	0xbe2e440d	-0.17018147
224	0x3e99024f	0.29884574
225	0x3d2e1c2f	0.042507347
226	0x3dc278b9	0.09495682
227	0x3db58dad	0.08864913
228	0x3d26e45b	0.04074512
229	0x3e1820ef	0.14856313
230	0xbd1e477c	-0.03864239
231	0x3df66fb1	0.12033022
232	0xbd42bf1b	-0.047545534
233	0x3cdd2274	0.026993968
234	0x3d5b7f60	0.05358827
235	0xbe0f5cae	-0.14000198
236	0x3e0e366d	0.1388795
237	0xbd06522f	-0.03279322
238	0x3dcf7cf4	0.10131255
239	0x3c8efd89	0.01745488
240	0xbd213811	-0.03936011
241	0xbd3b87db	-0.04578386
242	0xbe158ebb	-0.14605229
243	0xbdf6d710	-0.12052739
244	0x3d12a395	0.035800535
245	0xbd02bdef	-0.031919416
246	0x3d2a823c	0.041628107
247	0xbd616400	-0.055027008
248	0x3bab9370	0.005236082
249	0xbd541c57	-0.05178484
250	0xbe112c02	-0.14176944
251	0x3d9ce56f	0.076609485
252	0xbdc1445e	-0.09436868
253	0xbd59976f	-0.053122934
254	0xbe125d1a	-0.14293328
255	0x3cbd0815	0.023075143

input_layer.6.bias f4 [64]
0	0x3d8aaade	0.067708716
1	0xbc86b93f	-0.016445754
2	0x3dbf44b2	0.093392745
3	0x38fa9067	0.00011947826
4	0x3d539777	0.05165812
5	0x3cdb44a3	0.026766127
6	0x3d0b9cf4	0.03408523
7	0xbda9524f	-0.08267652
8	0xbd4ddcbf	-0.050259348
9	0xbc5c09a6	-0.013430035
10	0xbdcafd77	-0.09911626
11	0xbd8ce8eb	-0.06880363
12	0x3cf5d683	0.030009514
13	0xbd9ff194	-0.07809749
14	0xbd2df964	-0.042474166
15	0x3dd6d84c	0.10490474
16	0xbe0a8d42	-0.13530448
17	0x3b560116	0.0032654456
18	0xbd172e8b	-0.03690962
19	0xbd976392	-0.073920384
20	0x3cf722ad	0.030167902
21	0x3c9cb5dd	0.019129688
22	0x3dbdc2f4	0.092657
23	0x3dc8a67d	0.0979738
24	0xbd2aa1e9	-0.041658316
25	0x3d5af770	0.05345863
26	0x3dcdef91	0.10055459
27	0x3d09feaf	0.03369015
28	0xbcd5d14f	-0.026100783
29	0x3d9b6f92	0.0758964
30	0x3d838105	0.06421093
31	0x3da44abc	0.08022067
32	0x3d57ccd9	0.052685592
33	0x3d9974d1	0.07492984
34	0x3d6ba176	0.057527028
35	0x3be7807b	0.0070648766
36	0xbcf8ba6a	-0.030362327
37	0x3de77553	0.11301675
38	0x3db540fa	0.08850284
39	0xbde4ef45	-0.111784495
40	0xbddf5594	-0.109049946
41	0x3db01c94	0.08599201
42	0x3d5692d4	0.05238612
43	0x3de30a44	0.110859424
44	0x3da9f0be	0.08297871
45	0x3dbbbbc9	0.091666766
46	0xbda0efaf	-0.07858216
47	0xbe0c5215	-0.13703187
48	0xbbdf53f2	-0.006815427
49	0xbc2d3754	-0.010572273
50	0xbd8bdcbd	-0.06829212
51	0x3d9a20b6	0.0752577
52	0x3d73da19	0.059534166
53	0xbcd34719	-0.025790738
54	0x3bc7e146	0.0060998527
55	0x3c58233b	0.013191993
56	0x3dc58f8c	0.0964652
57	0x3e131609	0.14363874
58	0xbc5cda46	-0.013479775
59	0x3be60000	0.007019043
60	0x3cf694c8	0.030100241
61	0x3d85e23a	0.0653729
62	0x3cccb47d	0.024988407
63	0x3dc20ad4	0.094747216

output_layer.0.weight f4 [128, 576]
0	0x3d3ce9a7	0.046121266
1	0x3e235d03	0.1595345
2	0x3d71e99c	0.059060678
3	0xbd8262c7	-0.063664965
4	0x3d7307a9	0.059333477
5	0xbd364da0	-0.044507623
6	0xbd110546	-0.03540542
7	0x3d55c1f1	0.05218691
8	0xbd9c0d8a	-0.0761977
9	0x3d0978a2	0.03356231
10	0xbcbc89bc	-0.023014896
11	0xbdc30194	-0.095217854
12	0xbd37c8ae	-0.044869117
13	0x3d291a34	0.041284755
14	0xbdade353	-0.08490624
15	0x3d515d7f	0.051114555
16	0xbd5c71f2	-0.053819604
17	0xbc4682f2	-0.012116181
18	0x3d1e097e	0.03858327
19	0x3e685423	0.22688346
20	0x3d7c6cb5	0.06162711
21	0xbd2556d2	-0.040366
22	0x3db4da2e	0.08830677
23	0xbe191538	-0.149495
24	0xbd0a598a	-0.033776797
25	0x3ca98e0d	0.020697618
26	0xbd844c8e	-0.06459914
27	0x3e5c61df	0.2152171
28	0xbe83670c	-0.25664556
29	0xbe75b446	-0.2399455
30	0xbb038889	-0.0020070395
31	0xbd998fc4	-0.07498124
32	0x3d817a97	0.0632221
33	0x3d886535	0.06659929
34	0x3e6e9336	0.23298344
35	0x3c9601df	0.01831144
36	0xbe8e2648	-0.2776358
37	0xbd54533e	-0.0518372
38	0xbdc46489	-0.09589488
39	0x3d83432a	0.06409295
40	0x3def94a5	0.116982736
41	0xbc14647b	-0.00905716
42	0xbd4aafa0	-0.049483895
43	0xbc447e0d	-0.0119929435
44	0xbe06d540	-0.13167286
45	0x3db52703	0.088453315
46	0xbd8c815d	-0.068606116
47	0x3c1efa89	0.009703287
48	0x3c8cef5e	0.017203983
49	0x3d1c9eff	0.038237568
50	0xbb13350d	-0.002246204
51	0x3d812fe6	0.06307964
52	0x3d20818d	0.03918605
53	0x3cb4c149	0.022064822
54	0xbe1d3b94	-0.15354759
55	0x3e608bc4	0.21928316
56	0xbe30b7ea	-0.17257658
57	0xbe1accd4	-0.15117198
58	0x3dd789e1	0.10524345
59	0xbd907329	-0.07053215
60	0xbe0761a4	-0.1322084
61	0x3d7c26f3	0.061560582
62	0xbe5405d5	-0.2070535
63	0xbd17e1a2	-0.037080415
64	0x3b2a1b79	0.0025956316
65	0x3c963d8a	0.018339891
66	0xbd9e6a17	-0.07735079
67	0x3d41a987	0.047280814
68	0xbbd123a2	-0.0063824216
69	0x3dba82c5	0.091069736
70	0x3d4be4fc	0.049778923
71	0x3cb0650f	0.021532563
72	0x3df1283b	0.117752515
73	0x3e1ad00e	0.15118429
74	0xbca30cc0	-0.01990354
75	0x3d2492f7	0.04017922
76	0x3d66e25a	0.05636821
77	0x3dad7e33	0.08471336
78	0x3d0beb48	0.03415993
79	0x3d410d86	0.047132038
80	0xbe073036	-0.13201985
81	0x3db35f27	0.08758383
82	0xbda7bf25	-0.08190755
83	0x3d939c43	0.07207539
84	0xbd171089	-0.036881004
85	0x3c1b08f6	0.009462586
86	0x3cf5c617	0.030001683
87	0xbd0625a3	-0.032750737
88	0xbda2c179	-0.07947058
89	0xbd389715	-0.045065958
90	0x3d495608	0.04915431
91	0x3c94b6be	0.018153545
92	0xbdfec377	-0.12439626
93	0xbdcefe7f	-0.10107135
94	0xbab21621	-0.0013586917
95	0x3d83c54c	0.06434116
96	0xbdc90a34	-0.09816399
97	0x3e151f1a	0.14562646
98	0xbcde6d7c	-0.027151816
99	0x3d37bc07	0.04485705
100	0xbd8a8261	-0.06763149
101	0x3d817ae0	0.06322265
102	0xbe068898	-0.13138044
103	0xbe0c5cd1	-0.13707282
104	0x3e743058	0.23846567
105	0xbda3ca97	-0.07997625
106	0xbcfb46a4	-0.030673333
107	0xba5d87c9	-0.00084507145
108	0x3d9fdf5e	0.07806276
109	0xbc2c7a62	-0.010527225
110	0x3d9662e9	0.07343084
111	0xbd2a9131	-0.04164237
112	0xbe12ca7f	-0.14335059
113	0xbd2ddeb7	-0.042448726
114	0x3dc05025	0.09390286
115	0x3cc36520	0.023851931
116	0x3c3855bd	0.01125091
117	0xbca96d91	-0.020682128
118	0xbd39c76e	-0.045356207
119	0x3d60f7a8	0.054923683
120	0xbd90d04c	-0.070709795
121	0xbe1a4ae3	-0.1506763
122	0x3d4a0bc4	0.049327627
123	0x3e1e8ad0	0.1548264
124	0x3d2b8fc6	0.04188516
125	0xbdeb323b	-0.1148419
126	0x3e2f2f18	0.17107809
127	0xbcaf2b98	-0.021383092
128	0xbe0fd044	-0.14044291
129	0x3e02f76a	0.12789693
130	0x3d11e746	0.03562095
131	0x3d0f7934	0.035027698
132	0x3c888586	0.016665231
133	0xbc48ed77	-0.012263647
134	0x3db351b6	0.087558195
135	0xbd86f1a9	-0.06589062
136	0x3dd47dae	0.10375534
137	0x3ccce101	0.025009634
138	0x3d2a602e	0.04159563
139	0xbe07a394	-0.13245994
140	0xbe3f4a9b	-0.18680803
141	0xbe005f07	-0.1253625
142	0xbdff606b	-0.12469562
143	0xbd2905bf	-0.041265246
144	0x3c98da03	0.018658644
145	0xbd223410	-0.039600432
146	0xbd2ff8d0	-0.042961895
147	0x3d3f63c1	0.046725992
148	0x3ca22ae3	0.01979584
149	0x3afe71be	0.001941256
150	0xbda8ebd6	-0.08248107
151	0xbd02c477	-0.031925645
152	0x3cf6d3d7	0.03013031
153	0x3d810e1c	0.06301519
154	0xbce0dc19	-0.0274487
155	0x3d7be7b1	0.061500255
156	0x3de55bca	0.11199148
157	0xbc2b7dd1	-0.010467009
158	0x3c3caed5	0.011516293
159	0xbcf138e8	-0.02944608
160	0xbe18619a	-0.14880982
161	0x3d3afe21	0.045652512
162	0xbd9f4334	-0.0777649
163	0x3cf45e84	0.029830225
164	0xbe04212e	-0.12903282
165	0xbd7f959d	-0.06239854
166	0x3de53287	0.11191278
167	0xbdb47ab5	-0.08812467
168	0xbc2b0713	-0.010438698
169	0xbd1f736b	-0.03892843
170	0xbd3c1110	-0.04591471
171	0xbdac4a03	-0.08412554
172	0xbe5fda86	-0.21860704
173	0xbb807ad6	-0.003920893
174	0xbd7acc93	-0.061230253
175	0x3d6efb15	0.05834492
176	0xbcb83696	-0.022486966
177	0x3cad4a17	0.021153493
178	0xbdee50e3	-0.11636522
179	0xbd852962	-0.06502034
180	0x3d273c19	0.040828798
181	0x3c9397f0	0.018016785
182	0x3d0654c8	0.032795697
183	0x3d957fec	0.0729979
184	0xbdb6b318	-0.08920878
185	0xbd52fbc6	-0.05150964
186	0xbd7c93d5	-0.06166442
187	0xb962653a	-0.0002159075
188	0x3d1a75e8	0.0377101
189	0x3de09121	0.10965181
190	0xbd67bc54	-0.056576088
191	0xbb1701c9	-0.0023041836
192	0xbcaa2cf5	-0.02077339
193	0x3a161c83	0.00057262945
194	0x3d33e719	0.043921564
195	0xbe471abc	-0.19443792
196	0x3c4ea4a9	0.0126125
197	0x3e82e143	0.25562486
198	0x3c4cd14c	0.012501072
199	0x3d9d71c5	0.076877154
200	0xbd166735	-0.03671952
201	0x3d97c840	0.074112415
202	0xbca83e26	-0.020537447
203	0x3cd2e0b2	0.025741909
204	0xbc8bb80e	-0.017055538
205	0x3d570a6c	0.052500173
206	0xbbbf8837	-0.0058450955
207	0x3d991ba1	0.07475973
208	0x3db6bb16	0.089224026
209	0xbcd383e5	-0.025819728
210	0x3c84b86e	0.016201224
211	0x3dcce8e0	0.10005355
212	0x3d94d93b	0.07267996
213	0x3c3bc010	0.0114593655
214	0x3d3e99f5	0.046533544
215	0x3cbdd04f	0.023170618
216	0x3d6a7320	0.057238698
217	0x3d139add	0.03603636
218	0xbcdb7ec0	-0.026793838
219	0xbc742891	-0.01490225
220	0xbdad4dc8	-0.08462101
221	0xbd1eb6f7	-0.038748708
222	0x3d40d812	0.04708106
223	0x3d504181	0.05084372
224	0x3db68c38	0.08913463
225	0xbe628cb9	-0.22123994
226	0x3dd5b19a	0.104342654
227	0xbd37b154	-0.044846848
228	0x3cb62de1	0.022238674
229	0x3da524b9	0.08063645
230	0xbdaaa137	-0.083315305
231	0xbe0cd9ce	-0.13754961
232	0x3d91db31	0.071218856
233	0xbe9cada9	-0.30601242
234	0x3d39b6d1	0.045340363
235	0xbc5b20a1	-0.013374479
236	0xbdf7d9fa	-0.121021226
237	0x3cb483a3	0.022035426
238	0xbcaced67	-0.021109296
239	0xbd0e4cc3	-0.034741174
240	0x3d095172	0.033524938
241	0xbcd9dbda	-0.026594091
242	0x3bd2aeb9	0.00642952
243	0x3d92bb5e	0.07164644
244	0x3c4ad302	0.01237941
245	0x3cadb881	0.021206142
246	0xbd3a6d92	-0.04551465
247	0xbd0196af	-0.031637844
248	0x3e056211	0.1302569
249	0xbdee29ca	-0.116290644
250	0x3c9b47da	0.01895516
251	0x3e689c04	0.22715765
252	0xbece8cc0	-0.4034176
253	0x3e2b9ce2	0.16759065
254	0x3d619067	0.055069353
255	0xbe1f67b4	-0.15566903

output_layer.0.bias f4 [128]
0	0xbca6b058	-0.02034776
1	0xbc950c1a	-0.018194247
2	0xbd2b4d0f	-0.041821536
3	0xbcc89471	-0.024484845
4	0xbbcc9f19	-0.006244552
5	0xbdc96f27	-0.09835654
6	0xbaed59b6	-0.0018108401
7	0xbe44a9b6	-0.19205365
8	0x3d68c6de	0.05683028
9	0x3d562c2c	0.05228822
10	0xbe48104d	-0.19537468
11	0x3dafea0c	0.08589563
12	0x3d7d237c	0.06180142
13	0x3c215cc4	0.009848777
14	0x3d363050	0.04447967
15	0x3cfbc01e	0.030731257
16	0x3ce7562e	0.028239336
17	0xbd9de2c5	-0.077092685
18	0xbe529aa9	-0.2056681
19	0x3d82b948	0.06382996
20	0xbd9342ab	-0.0719045
21	0xbd8da98a	-0.06917103
22	0x3d905be6	0.07048778
23	0x3d352eb7	0.044234004
24	0xbbe25e06	-0.006908181
25	0x3df1bc7a	0.11803527
26	0x3b993d6f	0.004676513
27	0x3a821182	0.0009923431
28	0x3bedac15	0.00725318
29	0xbe195fbe	-0.14977929
30	0xbdb1a341	-0.08673716
31	0xbd9f1830	-0.07768285
32	0xbde4c6e8	-0.11170751
33	0x3d6c5953	0.057702374
34	0xbdef973e	-0.11698769
35	0xbe098671	-0.13430192
36	0x3cb73432	0.022363756
37	0xbdc3d53b	-0.09562155
38	0x3d46c30e	0.048525862
39	0xbcd540f5	-0.02603195
40	0x3cc5ba2c	0.024136625
41	0xbdf3c39a	-0.119025424
42	0xbe49aab3	-0.19694023
43	0xbdabe0a1	-0.08392454
44	0x3c8433ae	0.016137924
45	0x3cb909b7	0.02258764
46	0xbca5b3d0	-0.020227343
47	0xbd19b013	-0.037521433
48	0x3cfd3247	0.030907763
49	0xbd97db4c	-0.074148744
50	0x3c67f50f	0.014157548
51	0xbd5d1e4f	-0.053983983
52	0xbd21194e	-0.039330773
53	0x3dcdb4dd	0.100442626
54	0xbc0c4169	-0.008560517
55	0xbd51f0d8	-0.051255077
56	0x3c922abd	0.017842645
57	0xbc06046f	-0.008179768
58	0xbdde6767	-0.10859566
59	0x3d4a5489	0.049397025
60	0xbdbf9118	-0.09353846
61	0xbbb5b1f4	-0.0055448953
62	0x3baef75c	0.005339546
63	0x3cf7110f	0.030159501
64	0xbd91b9f0	-0.07115543
65	0xba81bed4	-0.000989879
66	0x3c83dcdc	0.016096525
67	0xbd95de7d	-0.07317827
68	0x3d15860e	0.036504798
69	0xbbc3025b	-0.0059512085
70	0x3c625aa2	0.013815554
71	0x3ba638f7	0.0050727087
72	0x3d93a63f	0.07209443
73	0xbd476684	-0.04868175
74	0xbd0457fc	-0.03231047
75	0xbd908435	-0.070564665
76	0x3ca0af05	0.019614706
77	0x3dafd049	0.08584649
78	0xbd8f2602	-0.06989671
79	0x3d970269	0.073735066
80	0xbd709446	-0.058735155
81	0x3c9a44dd	0.018831665
82	0x3dccf074	0.100068
83	0xbc8bcadd	-0.017064506
84	0xbc84225d	-0.016129667
85	0xbda23db4	-0.07921925
86	0xbd5d2d43	-0.053998243
87	0xbce35025	-0.027748177
88	0xbd1645c9	-0.036687646
89	0xbd1f113b	-0.03883479
90	0x3d0336b0	0.032034576
91	0x3c10e8fd	0.008844611
92	0x3ca33c0d	0.019926095
93	0x3d90e7db	0.07075473
94	0x3d3dfb00	0.04638195
95	0xbc7c5244	-0.015400473
96	0xbcbf727c	-0.02337002
97	0xbd9029d2	-0.070392266
98	0x3d21db7a	0.03951595
99	0x3ce77280	0.02825284
100	0x3dd6250c	0.10456285
101	0xbd2bd39a	-0.041949846
102	0xbccd0f19	-0.025031613
103	0x3ce39e80	0.02778554
104	0x3db40715	0.08790413
105	0x3c80788c	0.015682481
106	0x3c8e768e	0.017390516
107	0x3da44a41	0.08021975
108	0xbce0c525	-0.027437756
109	0xbe1ad90f	-0.15121864
110	0x3c8b2e4b	0.016989848
111	0x3bf9c548	0.0076223947
112	0x3caa31cd	0.0207757
113	0x3cdd38ba	0.027004588
114	0xbc43fb44	-0.011961762
115	0xbc72cc9d	-0.014819291
116	0xbd5440c5	-0.05181958
117	0x3ca91f1a	0.020644713
118	0xbd8f4cba	-0.06997056
119	0x3d575f44	0.052581087
120	0xbcd51c21	-0.02601439
121	0xbe323fb0	-0.17407107
122	0x3d5cb756	0.05388578
123	0xbc891664	-0.01673431
124	0x3cf9d629	0.030497627
125	0xbdc726bb	-0.09724184
126	0xbd283f10	-0.041075766
127	0xbe117ef2	-0.14208582

output_layer.2.weight f4 [5, 128]
0	0x3ecebebb	0.4037989
1	0xbf978324	-1.1836896
2	0x3f42f887	0.7616047
3	0xbf29720c	-0.66189647
4	0x3f4dc6b8	0.80381346
5	0x3f2b75fe	0.66976917
6	0x3f230df3	0.6369316
7	0x3f5fb585	0.8738635
8	0xbe3684aa	-0.17824045
9	0xbf73d6e5	-0.9524978
10	0x3f7d9a5a	0.99063647
11	0xbe8b45f3	-0.27201805
12	0xbe8a78de	-0.2704534
13	0x3f141024	0.5783713
14	0xbeef3128	-0.4671719
15	0x3f49f0e5	0.788832
16	0xbe5e64a2	-0.21718076
17	0x3df02249	0.117252894
18	0x3f37c5a6	0.7178596
19	0xbe356bb5	-0.17716868
20	0x3f25ab01	0.64714056
21	0x3e84839a	0.25881654
22	0x3d2df05b	0.04246555
23	0x3e237c2c	0.15965337
24	0xbeb386ea	-0.3506387
25	0xbe5d75c7	-0.2162696
26	0xbee6a6e9	-0.45049217
27	0x3f87bc21	1.0604287
28	0x3f4372ce	0.76347053
29	0x3f539d4f	0.8266191
30	0x3f21fdee	0.6327809
31	0xbf099a1f	-0.53750795
32	0x3f356de3	0.708708
33	0xbe34a1d7	-0.17639862
34	0xbf80e160	-1.0068779
35	0xbf517bda	-0.8182961
36	0x3e0bbe97	0.13646923
37	0x3f549bc7	0.830502
38	0xbecd2eb3	-0.4007469
39	0xbe9991d3	-0.29994068
40	0xbd12af07	-0.03581145
41	0x3f218775	0.63097316
42	0x3fa3ebbd	1.2806317
43	0xbf4333d9	-0.7625099
44	0xbe142c9d	-0.14470144
45	0xbea8f508	-0.32999444
46	0x3d324ef6	0.043532334
47	0x3ef2a74b	0.4739326
48	0xbe3f6e10	-0.1869433
49	0xbb223d22	-0.0024755676
50	0x3e164cb0	0.14677691
51	0xbf66cf5a	-0.90160143
52	0x3f42c5e2	0.76083195
53	0xbe95e743	-0.29278
54	0xbeb73bb5	-0.3578774
55	0x3d879b54	0.06621423
56	0xbeb85e48	-0.3600943
57	0x3f4f6893	0.8101894
58	0x3f817ecd	1.0116822
59	0x3d28aec5	0.0411823
60	0x3f6118a1	0.87928206
61	0xbf5ca19d	-0.861841
62	0x3f4f0b69	0.80876786
63	0xbeb1e693	-0.34746227
64	0xbf1bb0c7	-0.60816616
65	0x3e1c9b43	0.15293603
66	0x3e57538a	0.21027961
67	0xbf83790c	-1.0271316
68	0xbe69dd7f	-0.228384
69	0xbe346052	-0.17614868
70	0xbd242c53	-0.040081333
71	0x3e1ccd9b	0.15312807
72	0xbf3e139f	-0.7424869
73	0xbed8e7c1	-0.42364314
74	0x3efa862a	0.48930484
75	0xbed65983	-0.41865167
76	0xbea24737	-0.31694958
77	0xbe2d53a2	-0.16926435
78	0x3f87cd58	1.0609541
79	0xbf1893e8	-0.5960069
80	0x3f5563f2	0.8335563
81	0xbeda7673	-0.42668495
82	0x3d03621d	0.03207599
83	0x3f07d429	0.53058106
84	0xbf08f06f	-0.5349187
85	0xbf82da0d	-1.0222794
86	0x3f6c2a48	0.92252016
87	0x3e78fd1c	0.24315304
88	0xbf806d88	-1.0033426
89	0x3e7274bf	0.23677348
90	0xbe7e24ed	-0.24818774
91	0xbee408a3	-0.4453784
92	0xbf66f737	-0.9022097
93	0xbe86c9ee	-0.26325935
94	0xbf1bd611	-0.60873514
95	0x3d842717	0.06452768
96	0x3ddc39c3	0.10753205
97	0x3f8c0ab4	1.0940766
98	0xbf113c27	-0.5673241
99	0xbf368f04	-0.71311975
100	0x3e1427db	0.14468329
101	0x3f8a1ee2	1.0790675
102	0x3dd2b451	0.10288299
103	0xbe108d2e	-0.14116356
104	0xbf1b49a1	-0.60659224
105	0xbe5e7157	-0.21722923
106	0xbe01846a	-0.12648168
107	0x3dd3af59	0.10336179
108	0xbf18de78	-0.5971446
109	0xbd29dd27	-0.041470673
110	0xbe0ae17a	-0.13562575
111	0xbf39b174	-0.72536397
112	0x3d9ad746	0.075605914
113	0xbe382037	-0.17981039
114	0x3e69a312	0.22816113
115	0xbebdd6ea	-0.3707803
116	0x3e27eb17	0.16398273
117	0x3f36df32	0.7143432
118	0x3f30eead	0.6911419
119	0x3d576595	0.05258711
120	0xbf0b0903	-0.54310626
121	0xbf546092	-0.82959855
122	0xbee19f52	-0.44066864
123	0xbe992c86	-0.2991678
124	0x3e2605a5	0.1621309
125	0x3f34b3cf	0.70586866
126	0x3e4c0e33	0.19927292
127	0x3c9083b7	0.017640932
128	0xbba77053	-0.0051098256
129	0x39ba929e	0.00035585923
130	0xbb1fea27	-0.002440104
131	0x3ac95fa7	0.001536359
132	0xbadcbeb1	-0.0016841498
133	0xbba597da	-0.0050535025
134	0xbbc3b5fe	-0.005972623
135	0x3a297339	0.0006464008
136	0x3d19455b	0.03741966
137	0x3c5c2863	0.013437363
138	0xb927de20	-0.00016009109
139	0x3c8aca2e	0.01694211
140	0xbbdb0a51	-0.0066845794
141	0x3ad5dc81	0.0016316326
142	0xbc7b8eb3	-0.015353846
143	0x3c2536f0	0.010083899
144	0xbc82c7f5	-0.015964488
145	0xbd80973a	-0.06278844
146	0xba9bc5c2	-0.0011884498
147	0x3bedec49	0.0072608334
148	0x3d69d6a1	0.05708945
149	0x3b1c7432	0.0023872969
150	0x3cb70c1e	0.022344645
151	0x3cd9490a	0.026524086
152	0xba8c3b49	-0.0010698821
153	0x3c1bfde6	0.009520983
154	0x3abe6de9	0.0014528605
155	0x3ae98aed	0.0017817892
156	0x3ad54da8	0.0016273754
157	0xbb39aaa6	-0.0028330474
158	0xbc2feae5	-0.010737156
159	0xbb25e249	-0.0025311878
160	0xbc2bac39	-0.010478073
161	0xbccbe15e	-0.024887737
162	0x3a4a72b5	0.0007722781
163	0x39271a2c	0.00015936111
164	0x3ce804ac	0.02832254
165	0xbb455bb2	-0.003011447
166	0x3b3525fe	0.0027641053
167	0xbc7b560e	-0.015340341
168	0x3dbb7220	0.09152627
169	0x3951f223	0.00020021996
170	0xb8eb216b	-0.00011211898
171	0x3c0d8c1c	0.008639362
172	0x3ad6e077	0.00163938
173	0xbc3e2f62	-0.011607977
174	0xbc756d3b	-0.014979656
175	0xbb21edeb	-0.002470846
176	0x3cdabe51	0.026702078
177	0x3ca72dd5	0.020407597
178	0x3d33aa9a	0.04386387
179	0x3b007f66	0.0019607185
180	0x3b8c54f2	0.004282587
181	0x3bef69ab	0.007306298
182	0xbbff6dbc	-0.007795064
183	0xbc9c8b76	-0.019109469
184	0x3c2da131	0.010597513
185	0xbb0d9480	-0.0021603405
186	0x3a984209	0.001161636
187	0x3ddc2b90	0.107504964
188	0x39cc4f30	0.0003896891
189	0x3b709c73	0.0036714345
190	0x3963f3f5	0.00021739288
191	0x3d6d33f8	0.05791089
192	0xbb9f13ab	-0.0048546395
193	0x3c7c0c62	0.015383812
194	0x3bd172c8	0.006391857
195	0x3c0a05b3	0.00842421
196	0x3be67e07	0.0070340666
197	0x3e46eed6	0.19427046
198	0x3c28fbf7	0.010313979
199	0xbc0c55c3	-0.008565369
200	0x3b47fc32	0.003051531
201	0xbc86f247	-0.016472949
202	0x3d4aaf77	0.049483743
203	0xbb3938c4	-0.0028262595
204	0xbb59050d	-0.0033114583
205	0xbca848e4	-0.02054257
206	0xbd278594	-0.040898874
207	0xb9ac20e3	-0.000328309
208	0xbc502732	-0.012704657
209	0xbcdc9e87	-0.02693106
210	0xbdf81e69	-0.12115175
211	0xbd8618b1	-0.06547678
212	0xbb828916	-0.003983627
213	0x3a2e8d40	0.0006658621
214	0xb9297afa	-0.00016162908
215	0x3cf9cbd3	0.030492699
216	0xbabeefd7	-0.0014567327
217	0x377f5d8e	1.5220967e-05
218	0xbc51f51a	-0.012814784
219	0xbbe0c611	-0.006859549
220	0x3c2de897	0.010614536
221	0xbbcd421e	-0.0062639853
222	0x3b66fdcf	0.0035246497
223	0xbd734e95	-0.059401114
224	0xbc778983	-0.015108469
225	0xbbd124ab	-0.006382545
226	0x3b93cc06	0.0045104055
227	0x3ad17e71	0.0015983117
228	0xbdff52ce	-0.124669656
229	0x3bfa3481	0.0076356535
230	0x3ae6224b	0.0017557828
231	0x3c3ccf9e	0.011524109
232	0x3a9b1777	0.0011832555
233	0x3b315c56	0.0027063093
234	0x3bb2ded1	0.0054586907
235	0x3af6d7db	0.001883264
236	0x396c3d9e	0.00022529668
237	0x3d7d72dd	0.06187712
238	0x3c875382	0.016519312
239	0x380f77a1	3.420527e-05
240	0x3b15d4be	0.00228624
241	0x3ba22f14	0.00494946
242	0xbc532dce	-0.012889339
243	0x3b005205	0.0019580137
244	0xbc890ee5	-0.016730735
245	0x3b218bde	0.0024650018
246	0x38c90e00	9.5870346e-05
247	0xbc942d44	-0.01808799
248	0xbb1f24a2	-0.002428331
249	0x3c2ff34a	0.010739157
250	0x3ba13e7e	0.0049207797
251	0x3c7ca400	0.01541996
252	0x3cd160dc	0.025558881
253	0x3d908478	0.070565164
254	0xbcfd982d	-0.030956352
255	0x3cd6c1fa	0.026215542

output_layer.2.bias f4 [5]
0	0xbda299d9	-0.079395
1	0xbc8cf739	-0.017207729
2	0x3d483e5c	0.048887596
3	0xbcd24efd	-0.02567243
4	0xbc1b9c28	-0.00949768
